nn_models/model2.tflite (tflite, 943564 bytes, 13 tensors)

dense_14/bias f4 [8]
00000000: a164 543c db13 88bc 7a43 b0bc 6ed0 143b
00000010: 386a 8fbc 7266 67bd bcb9 ff3c 293d 86bc
0.012963445 -0.01661103 -0.02151655 0.0022707242 -0.017506704 -0.056494184 0.031216495 -0.016386585

dense_13/bias f4 [32]
00000000: 6196 0fbb f820 c0ba 08bf 68bd 5cd2 ca3b
00000010: a0fd bdbc fbdd 0abd 4d29 5abc 7c10 8cbc
00000020: dc66 df3a 4aef 89bc 9f54 e5bb 48a2 b3bc
00000030: 9dea 3c3c a079 5cbb 1e83 11bd b48c 50bd
00000040: a854 4dbc ec7b c2bc 41a3 21bc 0097 d5bc
00000050: 4384 6bbc 3d34 c3bb 2472 063d 278c 61bc
00000060: 27c3 c4bc d6ea 92bc 8644 eb3a 5266 35bd
00000070: 121d c53c b148 eaba 1e75 843b 4437 b1bc
-0.0021909701 -0.0014658263 -0.056822807 0.0061896276 -0.023192227 -0.033903103 -0.013315511 -0.017097704
0.0017044204 -0.016837735 -0.006998613 -0.021927968 0.011530546 -0.003364183 -0.035525434 -0.050915435
-0.012532391 -0.023740731 -0.009865583 -0.026072979 -0.014374795 -0.005957155 0.032823697 -0.013766325
-0.024018837 -0.017934244 0.0017949499 -0.044287033 0.024061713 -0.0017874447 0.004042282 -0.021632798

dense_12/bias f4 [64]
00000000: 3e88 f4bb 2f87 d9bb 73ad a6ba 8c86 8bbc
00000010: 5c78 90bb d78c 96bc 02b7 c8bb 69ff d4bb
00000020: a354 9a3d 98c6 c4bb 0033 cabb 5924 5ebc
00000030: 625f 4abc 1a2f ddbb 06c1 f6bb 4de5 06bd
00000040: d71a f6bb 4459 cdbc 4411 65bc ef53 b6bc
00000050: ad0b 8ebb a688 b6bc 55e2 6abb 9c3b 68bc
00000060: 7513 a13c 82ca f1bb a240 05bc 5efd e7bc
00000070: 439e e3bb c965 69bb 9098 a4ba 1029 90bc
00000080: 7c95 f8bb 5db0 46bc d812 96bb c414 1ebb
00000090: 9706 75bc 7022 0fbb a4d0 0abc 4aec 1dbc
000000a0: 320b 36bc c021 4fbc eb1c cabb 3c47 c43c
000000b0: 369e 0cbc 4d48 61bb 60f0 3dbd ec94 0ebd
000000c0: 30fb 8ebc 1dd5 3cbc fd4e 91bc be88 89bc
000000d0: b6db 61bb 23ce 10bc 4ef2 54bc 8dd0 34bd
000000e0: c40b 9dbb 30bd 7ebc bb34 24bc 998c 9ebc
000000f0: 1da3 24bc 5fb8 c4bb ead1 c2bc 1c83 b8bb
-0.0074625304 -0.0066384296 -0.0012716487 -0.01703193 -0.004408879 -0.018377705 -0.006125332 -0.006500174
0.075356744 -0.0060051195 -0.0061706305 -0.013558471 -0.012351843 -0.0067499997 -0.0075303344 -0.032933522
-0.007510524 -0.02506698 -0.013981167 -0.02225682 -0.004334888 -0.022281956 -0.003584047 -0.014174368
0.019662598 -0.007378877 -0.008133085 -0.028319057 -0.0069463565 -0.0035613647 -0.0012557674 -0.017597705
-0.0075861793 -0.012127009 -0.004579883 -0.0024121264 -0.014955184 -0.0021840595 -0.008472595 -0.009638855
-0.011111068 -0.012642324 -0.006167998 0.023959748 -0.008582642 -0.003437537 -0.046371818 -0.03480999
-0.01745376 -0.01152542 -0.01773786 -0.016788837 -0.0034463233 -0.008838209 -0.012997223 -0.044144202
-0.0047926623 -0.0155480355 -0.010022338 -0.019354152 -0.010048655 -0.006003424 -0.023781735 -0.005630864

conv1d_9/bias f4 [64]
00000000: cc5a a0bb f981 aebb 7b92 bdbb 6360 bfbb
00000010: 4621 32bb 5a5d c0bb f032 36bb dfa1 b8bb
00000020: e548 cebb e9e8 22bb 21ac 6abb 458f 0fbc
00000030: 0000 0000 b5be d7bb 2b26 6ebb 5871 453c
00000040: 012a c4bb 7a61 b8bb 9f69 c3bb 1179 81bb
00000050: 46ca cebb 0d50 cfbb a5d3 f7bb 821d bbbb
00000060: 9768 b4bb f791 acbb 0000 0000 d2c4 abbb
00000070: 6653 afbb d682 aebc b060 91ba 056c 9dbb
00000080: e458 94bb ff98 93bb 464d c3bb 82db c0bb
00000090: f6ad 87bb 48f7 dabb e95f 88bb 901a 02bb
000000a0: cda9 c3bb 6dbb 6cbb a635 12bc 0000 0000
000000b0: 2c32 83bb cc5b e0bb 7443 6bbc 0210 a3ba
000000c0: 5338 debb 6ae8 8cbc 0000 0000 c200 ebbb
000000d0: 0dd4 c1bb df44 80bb aee6 76bb f622 bebb
000000e0: b892 8dbb 0691 23bc 33de 1abc d392 85bb
000000f0: c7e1 edbb d0c7 c0bb fc29 c1bb 1990 1fbc
-0.0048936363 -0.0053255525 -0.005785284 -0.0058403476 -0.0027180477 -0.0058705034 -0.0027801357 -0.005634531
-0.006295311 -0.0024858064 -0.0035808163 -0.008762185 0.0 -0.0065840133 -0.0036338668 0.012050949
-0.0059864526 -0.0056268545 -0.0059635187 -0.0039512 -0.006310734 -0.0063266815 -0.007563072 -0.0057103047
-0.005505632 -0.005266424 0.0 -0.0052419687 -0.005350518 -0.021302622 -0.0011091437 -0.0048041367
-0.004527198 -0.0045043225 -0.0059601394 -0.0058855424 -0.004140611 -0.0066823103 -0.004161824 -0.0019852258
-0.0059711696 -0.0036122457 -0.008923924 0.0 -0.0040037837 -0.0068468805 -0.014359344 -0.0012440684
-0.0067816167 -0.017200667 0.0 -0.007171721 -0.005915171 -0.00391446 -0.0037674117 -0.0058025075
-0.0043204688 -0.009983307 -0.0094523905 -0.0040763407 -0.007259581 -0.0058831945 -0.0058948975 -0.009738945

conv1d_11/bias f4 [64]
00000000: 1814 9dbc f14d b8bb d968 3fbc 4d47 9bbc
00000010: c6df bebc f348 cabc dfa1 babb afac f439
00000020: 87f7 b7bc 973a d3bb 4b70 fabc 5aa4 89bc
00000030: 9860 0bbd ee72 4bbc 5bbe 46bc 9b60 05bd
00000040: c565 1cbc 726f 86bc 79a3 ddbc fc9b 8dbb
00000050: 829c e03a 13b8 bebc 2cf7 afbc fc04 76bc
00000060: 70fe 1bbc 1e56 ebbc f44f a8bc d4a0 33bd
00000070: b916 2cbc cc7a 08bb efab 90bc 35e3 d4bc
00000080: 9e0a 72bb 6bbe 55bc 8e2c ccbc ecfc b9bc
00000090: 7f2d 24bd 7954 ac3c 3a59 ef3a af27 17bc
000000a0: 48af 92bc 820e cfbc 1585 97bc 6c66 c5bc
000000b0: b623 cbbc 8713 d7bc c366 06bd 33b9 37ba
000000c0: efac cbbc 8b93 20bc 492e 89bc 2229 f9bb
000000d0: f137 91bc e25d 60bc ea89 06bd f23c 42bc
000000e0: 846f 41bc ff76 8abc 3cc2 d3bc dd75 95bc
000000f0: be57 693c 4450 3abc f1bf 3bbc c569 52bc
-0.01917462 -0.0056245257 -0.0116827125 -0.018954897 -0.023300063 -0.024692988 -0.005695566 0.00046667966
-0.022456897 -0.0064461934 -0.030571124 -0.016802002 -0.034027666 -0.012417538 -0.012130345 -0.032562833
-0.009545748 -0.016410563 -0.027055489 -0.0043215733 0.0017136487 -0.023281133 -0.021480165 -0.015015837
-0.009521112 -0.028727587 -0.020545937 -0.04385455 -0.010503464 -0.0020825146 -0.01766011 -0.025987247
-0.0036932598 -0.013045887 -0.02492359 -0.02270361 -0.04008245 0.021036373 0.0018260845 -0.00922577
-0.017905846 -0.025275473 -0.018496076 -0.02409669 -0.024797302 -0.026254429 -0.032812845 -0.0007008493
-0.024862735 -0.009800802 -0.016745703 -0.0076037804 -0.01772687 -0.013694258 -0.03284637 -0.011855351
-0.011806373 -0.016902445 -0.025849454 -0.018244678 0.014242111 -0.011371676 -0.011459337 -0.0128426

conv1d_10/bias f4 [64]
00000000: d958 69bc cb12 8bbc eda6 5abb e13a 2a3d
00000010: 24bd 43bd 5ea5 1bbb c730 1c3c 05ba 893d
00000020: b336 0abd 10da a73c b04e f4bc 1080 b9bc
00000030: 8c11 87bc cb9d 66bd ee3c 88bc c089 f4bc
00000040: 7b13 afbc b3e9 26bc d3d9 e7bb 2db4 5c3c
00000050: 8726 08bd de6d b0bb de49 74bc 2388 9fbc
00000060: 222d 00bd 4600 8dbc 0b5a 14bd c4f3 b7bc
00000070: cc89 88bc 9f84 47bd 578f 99bc 6ad0 90bc
00000080: 32f6 7bbc ef27 32bd 0ef4 a4bc c253 31bc
00000090: 8516 cbbc 885c 1dbd 378d 0fbd 7206 11bc
000000a0: 4c9f a4bc a5fe eabc b72f 07bd aef1 8abc
000000b0: a23d 83bc c707 0ebd b6d5 35bb 583f 11bd
000000c0: 53f1 95bc 0924 dd3c cad0 c2bc 411c 5abc
000000d0: be79 6bba 9fc4 dbbc b48b a0ba ba2b 87ba
000000e0: 648c 223d 2006 a9bc 837b fabb defb 02bd
000000f0: fa93 023d 37cf 27bc 8956 e7bb 0aa5 22bd
-0.014242374 -0.016976735 -0.0033363656 0.041560058 -0.0477878 -0.002374969 0.009533114 0.067249335
-0.03374357 0.020489722 -0.029822677 -0.022644073 -0.01648786 -0.056302827 -0.016630616 -0.02985084
-0.021371594 -0.010187554 -0.007075527 0.013470692 -0.033239868 -0.005384191 -0.014910189 -0.019474095
-0.031293042 -0.017212044 -0.036218684 -0.022455104 -0.01666727 -0.04871046 -0.018745108 -0.017677505
-0.015378522 -0.043495115 -0.020135906 -0.010823192 -0.024791012 -0.038418323 -0.035046782 -0.008851634
-0.02009549 -0.028685877 -0.03300449 -0.016960945 -0.0160206 -0.034675386 -0.002774579 -0.0354608
-0.018303549 0.026994722 -0.023781199 -0.0133124 -0.00089826796 -0.026827155 -0.0012248666 -0.0010312714
0.03968467 -0.020632803 -0.0076441183 -0.03197848 0.031879403 -0.010242275 -0.0070598763 -0.039708175

sequential_3/dense_12/MatMul f4 [64, 2176]
00000000: c88e 03bd 9b8d bdbc 9856 d13b 667a 14bd
00000010: c7bb 4abd a830 a9bb 1dc5 10bb b261 6abb
00000020: 1060 c8bb 050a b5bc 4ec3 193c e01b 84bc
00000030: 811a 2e3d 23fe 1ebd c11e e5bc cc2a 40bd
00000040: aba3 3bbd 7dbb 1a3c b0e3 ba3b 9db7 12bd
00000050: 840f 1fbd 660b 0bbb efe1 dd3c 1a40 ddbc
00000060: 3d0b 31bd d46e 1d3d e861 0dbd 71d4 e5bc
00000070: dd0e 12bd c3bb 683c 263f b53c 2955 233d
00000080: 8af1 023d b1e7 c2bc a8ed b13b 2631 f2bc
00000090: 8728 e4bc 9896 28bd 80a1 e03c 0145 353d
000000a0: e720 013d aa97 123c d6e8 9f3c ff77 0abc
000000b0: 2d54 173b e926 9ebb 68d1 f5bc 39e7 b7bc
000000c0: bcfd e83c a51d bcbc 4bfa 2f3d 8e6a c6bc
000000d0: a047 69bd 5081 1b3d b10d c1bc bd68 fbbb
000000e0: d75e 72bd 2adf e03b 20cf af3c f9a9 66bc
000000f0: 4367 54bc 10c0 053d 6ffc 2cbc e9f4 49bc
00000100: da28 043a 26b8 633c 1b71 57bd 2655 243d
00000110: 3921 103d bd7b ddbc 3912 68bc ede9 67bd
00000120: 3c6c 5e3c 4422 f83c 5fde e73b f2b5 22bd
00000130: 8fdc 013d 75e8 4cbc e674 9cbc 914f 003d
00000140: eba9 eb3c 399a 3cbd 266a 353d 2a8d 0a3c
00000150: babd f93c c63c c43c f162 dbbc 9083 64bc
00000160: 7ee4 323d b1f8 04bd 066c 43bd aa0d d63c
00000170: af4b 2abd bc5b 54bd 03ff 163c e6d3 dbbb
00000180: af2b 16bd 0d18 a23b c823 05bb 72fd d8bc
00000190: 3cdf ae3c 1dcf 36bd fcb1 e2bb 5380 323d
000001a0: 7c3b 16bc 6327 3bbd a5d4 12bd f335 39bd
000001b0: c201 25bd f72c b138 8303 63bd d1dd 0a3d
000001c0: deae 05bd 6396 ca3c 114a 31bd 4c86 90bc
000001d0: 2a97 33bd 8bd4 8f3c 31bd 3ebd 673d 183c
000001e0: 0c34 c9bb 1d3e c53c c907 f53c 74d8 373d
000001f0: a582 f5bc 2746 83bb bd85 b43c 8394 b3b7
00000200: 627e 12bd ec8b 1bbc 90a4 16bd 377a fcbb
00000210: 7a7b 7a3c bad1 d43c 3de7 15bc 886c 173d
00000220: f070 0cbd a60f 03bd 350b 6cbc ce5d 0d3c
00000230: d8ae e0bc 02ff 843c eebd b73c 17db 703c
00000240: 95ed 5fbd 3c4d 273d 7c51 c1bc 51a2 0d3d
00000250: a515 f43b fa35 2fbd a679 61bd 5b73 50bd
00000260: 5313 56bc a553 70bd abcc ff3c d006 33bb
00000270: aa49 353d e43f 3bbd 8e98 f83a 2956 123c
00000280: 4a88 973b 7e59 093c 12a5 b63c d120 113c
00000290: 7e16 383d ea2b 243d c4b8 9bbb 52d1 193c
000002a0: 75c3 843b 4e93 ea3c 0d67 e6bc 9fa5 503c
000002b0: 8b0e 45bd f80c a93c 7f63 d2bc bc9d c6ba
000002c0: eca7 363d 1deb 35bc 9186 0e3d 6bb4 ebbb
000002d0: fe82 3d3c 7fb5 c8bc e9d4 7dbc a572 c63a
000002e0: 6175 ea3c 49c6 de3c ce21 243d ea6f ab3c
000002f0: 67ec 023c ce45 65bc 0950 ee3c 9367 e0bc
00000300: 5475 31bd 402b 09bc 2517 143d 4455 1c3d
00000310: cacc ca3c e44f 0ebd ff3a 35bb 8a12 aebc
00000320: 9ee6 dbbc 6289 a7bc 7090 2cbd 03a7 693c
00000330: 88b4 0cbd 388a 15bc 23ec 103d 7697 87bb
00000340: 20dc cebc 71fc e1bc 8125 153d 71ef 0dbd
00000350: 225d a33c 5ada 67bd 13aa 963c 24d6 f8bc
00000360: 5530 c13c 1bb7 6ebd e532 5237 4675 3ebd
00000370: 4268 353d 66f7 923c 2ca5 06ba da38 d63c
00000380: 5644 22bd d3d9 2fbd 55a4 e5bc bbc5 303d
00000390: 22aa ec3c ca17 363c 4912 0dbc 5a4c 2d3b
000003a0: 3c5e 01bd 7c19 063c bcc4 bf3c 5911 0d3d
000003b0: 38ff f5bc aa32 8cbc d128 c33c ea60 88bc
000003c0: 2235 2f3d c941 e8bb ffc8 d2bc d84b 2e3d
000003d0: 51f0 c7bc ae9d 023d 9bd9 d53b 55ff 383d
000003e0: a5ff e8bb 846f 33bd 76df 35bd 2e9f 19bc
000003f0: 38c7 663c 7619 e23c 6955 4b3c a64f e33c
-0.03211859 -0.023138812 0.0063884966 -0.03624954 -0.049495485 -0.005163271 -0.0022090145 -0.0035763797
-0.006114967 -0.022099504 0.009384943 -0.016126573 0.042505745 -0.038816582 -0.027968766 -0.046915814
-0.045810383 0.009444115 0.005703412 -0.03581964 -0.038833156 -0.002121651 0.027085273 -0.027008105
-0.04322361 0.038435772 -0.0345172 -0.028055402 -0.035658706 0.014204922 0.022124838 0.039876137
0.03196863 -0.02379212 0.005429942 -0.029564451 -0.027851356 -0.041159242 0.02742076 0.04425526
0.03152552 0.008947292 0.019520205 -0.008451461 0.0023090944 -0.004826416 -0.03000708 -0.022449123
0.028441302 -0.022963354 0.042963307 -0.024220731 -0.056953073 0.03796512 -0.023566099 -0.007672398
-0.059172478 0.0068625407 0.02146107 -0.014078611 -0.012964073 0.03265387 -0.010558232 -0.012326458
0.0005041488 0.013898885 -0.0525981 0.040120266 0.035187934 -0.027036542 -0.014164501 -0.056619573
0.01357561 0.030289777 0.0070760692 -0.039724298 0.03170448 -0.012506594 -0.01909871 0.03132588
0.028767547 -0.046045516 0.044290684 0.008456508 0.030485976 0.02395476 -0.026780577 -0.013947383
0.04367494 -0.032463733 -0.04771044 0.026129562 -0.041576084 -0.051845297 0.009216073 -0.00670861
-0.036662754 0.0049467147 -0.0020315517 -0.02648804 0.02134668 -0.044631112 -0.00691819 0.04357941
-0.009169456 -0.04569186 -0.035847325 -0.045217466 -0.04028488 8.448393e-05 -0.05542327 0.033902947
-0.03263747 0.024729913 -0.043283526 -0.017642163 -0.043845333 0.017557403 -0.046567146 0.009291983
-0.0061402377 0.02407747 0.029910939 0.04488416 -0.029969523 -0.0040061655 0.022036428 -2.1407619e-05
-0.03576506 -0.009493809 -0.036778033 -0.007704999 0.015288228 0.025978912 -0.00914937 0.036968738
-0.034287393 -0.031997345 -0.014406969 0.008628322 -0.027427122 0.016234878 0.022429433 0.014700673
-0.054669935 0.04084514 -0.023598425 0.034578625 0.0074488693 -0.042776085 -0.055047654 -0.05089126
-0.013066131 -0.05867352 0.031225523 -0.0027317293 0.044259705 -0.045715228 0.0018966363 0.008931675
0.004624401 0.008383153 0.022295509 0.008857922 0.044943325 0.040080942 -0.0047522504 0.009388285
0.0040516206 0.028634693 -0.02812531 0.0127348 -0.048109572 0.020636067 -0.025682209 -0.001515321
0.044593737 -0.011103419 0.0347963 -0.0071931384 0.0115668755 -0.024500607 -0.015492656 0.0015140368
0.028620424 0.02719416 0.0400713 0.020927388 0.007990933 -0.0139936935 0.029090898 -0.027393138
-0.043324783 -0.008372128 0.036154885 0.038167253 0.024755854 -0.03474416 -0.0027653573 -0.021249074
-0.026843365 -0.020451251 -0.042129934 0.01426101 -0.034351856 -0.009127192 0.035381448 -0.0041379286
-0.025251448 -0.027586194 0.03641272 -0.034652177 0.01994187 -0.05660472 0.018391645 -0.030375548
0.023582617 -0.05828009 1.2528825e-05 -0.04649856 0.04428888 0.017940234 -0.0005136307 0.026150156
-0.03961595 -0.042932343 -0.028032461 0.04315732 0.02888972 0.01111407 -0.008610317 0.0026443214
-0.03158401 0.008184787 0.02340924 0.034440372 -0.030028924 -0.017114002 0.023823174 -0.016647775
0.04277528 -0.0070879203 -0.025730608 0.0425528 -0.024406584 0.031888656 0.0065261847 0.04516538
-0.0071105533 -0.04380752 -0.044402562 -0.00937633 0.014085583 0.027600031 0.0124105 0.02774794

sequential_3/dense_13/MatMul f4 [32, 64]
00000000: b874 6dbe 5c69 063e 4aed 77be 8b75 57be
00000010: 588f 49bd 1a1a 873d 4ad1 823d 37f1 a9bd
00000020: c435 fbbd f85a 14be 1433 353e 6661 3b3e
00000030: 9eb8 59be c0bd 7b3e 94ef 20be eb1c 1f3e
00000040: 10af 3bbd 2dcc 873d 58fc 4f3e fcc7 443e
00000050: 41ed f03d b7e9 803e 5dc8 00be 1283 713e
00000060: eeae 1bbd ecf8 1bbe 2321 c83d 61d7 d3bd
00000070: 8577 45be 514c 1bbe 80c9 d5bd ae64 29be
00000080: f9dd 90bd 78d6 eebd c9bd a93d 3f72 7bbe
00000090: d955 af3d 8edf 0ebe f922 fabd e11c 343e
000000a0: 106a fabd 2919 1cbe 0053 333c b3f4 49be
000000b0: f282 08be 9d66 853e acd6 08be 7471 2e3e
000000c0: 54ac 4c3e 3c1e 14be 2880 5c3e 400e 80bc
000000d0: cc9f 06be 3782 183e a909 5f3e e480 503e
000000e0: f2ad fabd 0ee5 51be f2c2 53be da6a 5f3e
000000f0: 23ec 84bd 3051 64bd 2f07 57be bb17 2fbd
00000100: 2765 02bd 5f03 643e 45df 79bd f38f 59be
00000110: 583f fc3d d539 06ba 6baf e6bd f95a 2b3e
00000120: 240c 62be a1ec 2b3c 1a0a 333e 1475 6bbe
00000130: a493 0a3e 7f90 9bbd 73e7 723e e519 38be
00000140: 9f95 443e dc32 47be 66a4 28be 841b 72be
00000150: 40d8 393c 1465 11bc b715 4c3e 10a3 103d
00000160: 07bd 1d3e b01e 173e f6b5 a9bd 055a 853c
00000170: b766 613e d75a 0cbd 71d3 c93d 8006 10be
00000180: 0193 36bd 19de f9bc b41e 323d 5e5c 403e
00000190: 8a39 a33c 0032 00be 7b5c e4bd a43d cc3b
000001a0: 2d30 12be 743f 803d b829 033e f493 733d
000001b0: 89fa 66be 0ef4 23bd c1d2 92bd 96f4 c4bd
000001c0: 4fda ccbc 0a3d 873d b04e aebd 0051 203d
000001d0: cc43 83be b495 143e dc6f 163e 4632 f13c
000001e0: 49aa bdbd a015 503e 4fb7 b4bc 9780 18be
000001f0: c7a0 3cbe 3dfa c73d f3ce 313e 19c1 64be
00000200: 828e 303e e324 d43c f0a3 063d 53e7 643e
00000210: d010 fc3d 8856 40be 3597 2f3e 3c31 58bc
00000220: 9b27 62b8 6bb2 743e 86d2 3bbe 6632 273e
00000230: 104a 53bd 305e 8bbc 83e7 16bd 74b9 f4bc
00000240: 07dc 00be 0361 4c3e 03e2 143d 8853 563e
00000250: 6c8d 603e 6c24 d63c 0368 073e add8 8a3d
00000260: e737 a7bd 9d36 74be 814e e83d a027 1ebe
00000270: 0fc0 533e 8ad8 bdbd 9ea7 44bb ebce 5c3d
00000280: 58cd 95bd 576a 3a3e e31d c73d df38 57be
00000290: 1ab0 ecbd bd91 82be 23de c3b8 87d9 b43a
000002a0: e837 af3d eb56 7fbe 2857 d23d e310 e8bd
000002b0: e6dc 7dbe 580f dbbc 7c06 cfbd 0dcd e8bd
000002c0: b22a 83bd 74fe f13d a117 373e 4085 bdbc
000002d0: c7d1 123e 5e67 74be 21c5 503e f59f 38bd
000002e0: c4d2 9abd 880c c2bd cb94 483e 79b9 803d
000002f0: 06ae 26bd 7bf5 0dbe 546b 0c3e bd3e 303e
00000300: f866 e1bd 37ab 283e 354d 30be 6269 fd3d
00000310: 49d9 0e3e f214 e8bd b53c 5cbe 266e 6bbe
00000320: a221 95be e16e 443e 59cb 6fbe aa9c 683e
00000330: 6f51 503e 8215 293e 5fff 3dbe cad2 fa3c
00000340: 3d59 073e ba40 96bd 72a9 193d 84da bd3d
00000350: e6af 2f3e be7b 4a3d c82a f0bc 38c9 433d
00000360: 86bb 5f3e f95e 2f3e fea8 4dbe e46b 48be
00000370: 58cc ceba 6199 4abe 62c2 79be 1068 673d
00000380: c5ea 7a3e c905 b6bc 6329 763d 1f9b ba3d
00000390: 5cc9 063e 4de7 1e3e b87f 7b3e 51a6 45be
000003a0: e073 ab3c 5104 9ebc d8a6 473e 9b9d 6dbe
000003b0: 7d56 68be d12a eebd 77a7 4c3e db5c 2b3e
000003c0: 9eb4 6b3e 5831 413e 2cf1 57be 013b 133e
000003d0: 231f 12be 482e 6fbe 4cb5 44bc 0272 b23d
000003e0: 7bc0 16be dce1 3b3e c98a 743c f704 953d
000003f0: 0038 fdbd e013 98bc 4fb4 da3d 7898 aabd
-0.23189056 0.13126129 -0.24211612 -0.21040933 -0.04920897 0.06596775 0.06387575 -0.08297961
-0.12266114 -0.14487827 0.17695266 0.18298873 -0.21261832 0.24584103 -0.15716392 0.15538375
-0.04582125 0.0663074 0.20311105 0.19216913 0.117640026 0.2517831 -0.12576433 0.23585156
-0.038008623 -0.15231675 0.09771945 -0.10343815 -0.19283874 -0.15165831 -0.10438824 -0.16542313
-0.07073588 -0.116620004 0.08288152 -0.245553 0.08561296 -0.13952467 -0.12213702 0.17589141
-0.12227261 -0.15243973 0.010945082 -0.19722252 -0.13331202 0.2605485 -0.13363141 0.17035466
0.19987613 -0.14464658 0.21533263 -0.015631795 -0.13146895 0.14893423 0.21781029 0.20361668
-0.12240209 -0.20497534 -0.20679834 0.21818104 -0.06490352 -0.05574149 -0.20998834 -0.04274724
-0.031834748 0.22266911 -0.061003942 -0.21246319 0.12316769 -0.0005120312 -0.11263927 0.16733922
-0.22074944 0.010493428 0.17484322 -0.2299388 0.13532883 -0.0759592 0.23721103 -0.17978628
0.19197701 -0.19452995 -0.16468963 -0.23643309 0.011343062 -0.008874197 0.19930159 0.03531176
0.1540414 0.147578 -0.082866594 0.016278276 0.22011839 -0.03426632 0.098547824 -0.1406498
-0.044573788 -0.030501412 0.043486312 0.18785235 0.019924898 -0.12519073 -0.11150452 0.006232934
-0.1427619 0.06262103 0.12808883 0.05946727 -0.22556509 -0.04002767 -0.07169104 -0.096169636
-0.025006441 0.06603439 -0.08511102 0.039139748 -0.25637662 0.14510232 0.14691108 0.029442918
-0.09260995 0.2032075 -0.022060065 -0.14892803 -0.18420707 0.09764526 0.17364101 -0.22339286
0.17241862 0.025896495 0.032871187 0.22353868 0.12307894 -0.18783009 0.17147525 -0.013195332
-5.3919484e-05 0.23896186 -0.18342027 0.16327819 -0.051584303 -0.017012686 -0.03684188 -0.029873587
-0.12583934 0.19958882 0.036348354 0.20930302 0.21928948 0.026140414 0.13223271 0.06779609
-0.081649594 -0.23848958 0.113430984 -0.15444803 0.20678733 -0.09269817 -0.0030007134 0.05390827
-0.07314557 0.18204628 0.09722497 -0.21017788 -0.11557026 -0.25501814 -9.339701e-05 0.0013797738
0.08555585 -0.249355 0.1027053 -0.11331346 -0.24791297 -0.026740715 -0.10108659 -0.11367235
-0.06404628 0.11816111 0.17880107 -0.023134828 0.14337836 -0.23867556 0.20387699 -0.045074422
-0.075597316 -0.094750464 0.1958801 0.06285376 -0.040693305 -0.13863175 0.13712817 0.17211433
-0.11005968 0.16471563 -0.17216952 0.12373616 0.13950075 -0.1133212 -0.21507533 -0.22991237
-0.29127222 0.19182922 -0.23417415 0.22716013 0.20343564 0.16512111 -0.18554448 0.03061809
0.13217635 -0.07336564 0.03751511 0.09270194 0.17156944 0.049434416 -0.029317275 0.04779932
0.21848878 0.17126073 -0.20083997 -0.19572407 -0.0015777452 -0.19785072 -0.24390557 0.056495726
0.2450362 -0.022219555 0.060098063 0.09111618 0.1316275 0.15517922 0.2456044 -0.19301726
0.020929277 -0.019289168 0.1949724 -0.23204653 -0.22689243 -0.1162926 0.19985758 0.1673464
0.23018119 0.1886648 -0.21088094 0.14377977 -0.1426969 -0.23357499 -0.012006115 0.087131515
-0.14721863 0.18347877 0.014925667 0.072763376 -0.12364197 -0.018564165 0.106789224 -0.08329862

sequential_3/dense_14/MatMul f4 [8, 32]
00000000: d74c 923e 2559 5f3e 1ea1 babd 7710 0c3e
00000010: d683 0cbe d0d6 8f3e 987c a03d 962b 37be
00000020: d2a7 c33e ade9 8a3e 805e 7c3e fc4b 4a3e
00000030: 710f b23d 9580 81be 35da 963e 334d 9dbe
00000040: 8369 043e 55f9 26bd 5fb6 68be ba0a 34be
00000050: 2250 ca3b e866 60be 019b 553e c77c 0f3e
00000060: 31c5 6ebe 54cd 13be 427a 3d3e 0c7d 943e
00000070: 577f ddbe 136f ab3c 7a4f 84be 61f4 dfbc
00000080: 9ac9 99be 8ee1 babe 85a1 69be 191b 893e
00000090: 18fb abbe 6f55 c7be 0b48 a93e 7c41 7c3e
000000a0: 0276 943e 660f 6b3d db9e e93d 0f16 b7be
000000b0: 191e 2cbe 2e0f 60bd e7dd 6abd 9f1d 6dbe
000000c0: f591 01be 7fc4 f33d e876 253e 4211 95be
000000d0: 50a7 873e 7c38 043e c04c 63be cb8b 20bc
000000e0: 023b b0be d19f 82bd 0876 cd3d aea8 c63d
000000f0: 797e d6bb eafd a73e 76b5 c0be 2422 003e
00000100: 477d e13d 735d a6be 3b2d 91be 4d85 f6bd
00000110: 1038 64bd 6a09 9fbe 4ce1 a7be e271 873e
00000120: ea81 99be 8765 25be 93f0 d43d be89 acbe
00000130: 5f48 b5be 6fc4 9c3e c8e8 da3b 6cd1 b13e
00000140: 2a89 a13e 5f20 d4bd 3e3a 8abe 3872 eebd
00000150: fbe1 663d 27ae 71bc 9bdd c1bb 5d90 aa3e
00000160: 3b8b 9f3e c062 b43d 4a68 d9be 2ec7 c1be
00000170: 764e aebd 574f c43e 022b 1ebe ff9c 813e
00000180: 0d80 76bd cebb abbd 5208 52be 21b8 7ebd
00000190: dd56 a33d 0fba 343c d4d2 a93e f929 97be
000001a0: 99bc 44be e3b7 e2bc 0bf5 2b3e 2331 adbe
000001b0: d77e 863e 938e d1bd a57b a3be 4132 b93e
000001c0: 5b40 bdbe 3998 a6be 42fd 793e 6b86 93be
000001d0: c992 9b3e cce1 10be 9de2 8c3e 3acb 9a3e
000001e0: 062c 84bd 38d0 db3d 0e67 a33d 1c44 27be
000001f0: ae30 903e 06ae 8d3e 8039 babc eef8 403e
00000200: 9e1a 89be c6ef c5be 0229 b53e d97e 99be
00000210: 5ef2 d93d 5010 013e 7589 433e 0f5b 8dbd
00000220: 6862 8f3e 202c 06be 3039 f8bb 54f1 aabe
00000230: d3ab 5b3e 6498 b3bd 038a aabd 8fd4 56be
00000240: 3756 5f3e d6a3 e43d b7a1 5bbe 04af 70be
00000250: a7af b6be c1c2 8b3e 718a 6a3e d3c8 18be
00000260: 9508 ea3c d810 a7bd 2124 353e 6953 893d
00000270: 1215 d2bd 65d8 ac3e c86e bebe 8b46 4d3b
00000280: 8dc2 233e a3fe 85bd 9da2 a73e 34d3 46be
00000290: 9885 703c 0030 863e a044 db3d 2170 053e
000002a0: 146c 03be 0969 fabd c567 803e d86a f7bd
000002b0: 4d35 073e c515 343e 9a34 96bd b8b5 2c3e
000002c0: 57ab a33e b6a3 8e3e 0dd6 af3e a88c 85be
000002d0: f0ee 6bbc 20cb 70be 57d7 b4be bfb4 363e
000002e0: 3962 3abe a5d2 d2bd aef4 aa3d 4c53 823e
000002f0: d3b2 ef3c c3e6 0dbd a020 6bbe 9fbd 99be
00000300: c770 5c3e cb41 b23e 6ce8 80be a505 25bc
00000310: 843a 2d3e df82 30be f8d6 bc3e e004 133e
00000320: 3afd 93bc fd9b 1b3e f10b aebe 472d 83be
00000330: 6b64 1a3e 0209 a03e 7135 89bc d46e c1bd
00000340: 8a55 553d 88c6 0dbe dc8e 3fbe 1781 52be
00000350: aa82 593e 70f1 85bb d6ef be3e e83a 2cbe
00000360: e9a3 41be 4555 b93e 041c a73e 698b af3e
00000370: 0c4c 6cbe 13c3 7f3e 8d49 90bd 890e 293e
00000380: 64b8 7cbe f986 95be 73fa 16be 9138 913e
00000390: dfed 863e 94cf 1fbd b793 d73d bcd9 283e
000003a0: 65c7 2abe 9671 24bd 8a36 ef3d 0617 08be
000003b0: f673 cabe c313 153c 914f 9f3e 6757 b5be
000003c0: 243d 5b3e fdb7 81be 2289 2c3d bda7 d33d
000003d0: 9e2e 5abe 7f40 9d3e aea5 39be 9549 e63d
000003e0: 2115 80be 4e34 bc3e 3801 f2bc f529 bbbe
000003f0: 0fac 62be e28b b4be 117d ec3d f7b7 8abe
0.2857425 0.2181135 -0.09112762 0.13678156 -0.13722166 0.28093576 0.07836264 -0.1788772
0.38213974 0.27131405 0.24645424 0.19755548 0.086943515 -0.25293413 0.29463354 -0.3072296
0.12930875 -0.040765125 -0.22725819 -0.17582217 0.0061741034 -0.21914256 0.2085991 0.14012443
-0.2331741 -0.14433795 0.18503669 0.29001653 -0.43261215 0.020926988 -0.25841886 -0.027338209
-0.30036622 -0.3650021 -0.22815521 0.26778486 -0.33590007 -0.38932368 0.33062777 0.24634355
0.28996283 0.057387732 0.114072524 -0.35759017 -0.16808356 -0.054701976 -0.05734053 -0.23155831
-0.12653334 0.11902713 0.1615864 -0.2911473 0.26494837 0.12912172 -0.22197247 -0.009798954
-0.3442002 -0.06378139 0.10032278 0.09700142 -0.0065458384 0.3281091 -0.37638444 0.12513024
0.11010223 -0.3249317 -0.2835482 -0.12037144 -0.055717528 -0.3106187 -0.32789075 0.26454073
-0.2998193 -0.16152011 0.103974484 -0.3369884 -0.35406777 0.30618617 0.0066805817 0.3473009
0.3154996 -0.10357737 -0.2699756 -0.11642879 0.056367856 -0.014750994 -0.00591631 0.33313265
0.31160912 0.088078976 -0.4246238 -0.37847275 -0.08511059 0.38341781 -0.15446094 0.2531509
-0.060180712 -0.0838543 -0.20510986 -0.062187318 0.07975552 0.011030688 0.33168662 -0.2952421
-0.1921257 -0.027675575 0.16792695 -0.3382655 0.26268646 -0.10232272 -0.3193027 0.36171153
-0.36963162 -0.32538012 0.24413016 -0.2881349 0.30385426 -0.14148635 0.27516642 0.30233175
-0.06453709 0.10733074 0.079786405 -0.16334575 0.2816214 0.27671832 -0.022732496 0.18844959
-0.2677812 -0.38659495 0.3538285 -0.2997959 0.10641931 0.12603879 0.19095404 -0.06902134
0.28004766 -0.1310277 -0.0075751767 -0.33387244 0.21452264 -0.087693006 -0.08327105 -0.20979522
0.21810232 0.11164062 -0.21448408 -0.23504263 -0.35680887 0.27297023 0.22904374 -0.14920358
0.028568545 -0.081575096 0.17689563 0.06705362 -0.10257925 0.33758846 -0.37193894 0.0031322564
0.15992184 -0.06542709 0.32741252 -0.19416505 0.014680289 0.26208496 0.107064486 0.13031055
-0.12834197 -0.12227065 0.2507917 -0.12080926 0.13203926 0.1758643 -0.07334252 0.16866195
0.3196666 0.27859277 0.34342995 -0.26083875 -0.014400229 -0.23514986 -0.3532054 0.17842387
-0.18201531 -0.102940835 0.0834745 0.25454175 0.029260075 -0.0346439 -0.22961664 -0.30027482
0.21527396 0.3481582 -0.25177324 -0.010072147 0.16916853 -0.17237423 0.36882758 0.14357328
-0.018065084 0.15196224 -0.33993486 -0.2562048 0.15077369 0.31256872 -0.016749116 -0.09444967
0.05208353 -0.13845265 -0.1870684 -0.20557056 0.2124125 -0.0040876195 0.37292355 -0.16819346
-0.18910183 0.36197868 0.32638562 0.3428605 -0.23075885 0.24976759 -0.07045279 0.16509451
-0.24679714 -0.29204538 -0.14743976 0.2836347 0.26353356 -0.03901632 0.10526221 0.16489309
-0.16677625 -0.040147386 0.116803244 -0.13290033 -0.39541596 0.00909895 0.31115392 -0.35418245
0.21410042 -0.25335684 0.042122968 0.10334728 -0.21306846 0.3071327 -0.18129608 0.112445034
-0.2501612 0.36758655 -0.029541597 -0.36555448 -0.22135948 -0.35262972 0.11547292 -0.2709348

sequential_3/dense_15/MatMul f4 [1, 8]
00000000: 2efd da3d eed3 883d 4e05 fd3e 1f15 183f
00000010: 11ae e93e 1f40 3a3f 4fc1 30bf f673 d83e
0.106928214 0.066810474 0.4941811 0.5940723 0.45640615 0.7275409 -0.69044966 0.4227597

sequential_3/conv1d_9/Conv1D f4 [64, 1, 3, 352]
00000000: 056f 7b3d 3d31 70bc 658c 823d 7795 733d
00000010: 010f 4dbd 4312 843d 6f9b a1bc ec95 4d3d
00000020: 3a1b 0b3d 8ed0 a6bd 592d 92bc 7397 89bd
00000030: 7de7 333d f039 5a3d bcd1 c3bc 1a1d a03d
00000040: 8ff2 02bd faed 8a3c ac22 dcbc 7f0a cebc
00000050: 8c80 da3d 1ff2 123d 3010 1cbd e32d 2a3d
00000060: e860 7ebd 1542 373c c2f9 d2bc 0c5f af3d
00000070: 0bcd e3bd 8ad1 dfbc 2be9 b3bd f1f0 a0bd
00000080: 0469 58bd 8f19 36bb 856f 1e3c b22c 8cbd
00000090: b21b b2bd eedf ad3c 67f6 523d 157c 1d3d
000000a0: 15e5 713d e3f8 b5bb 8d97 93bd dae4 bbbd
000000b0: eeb5 d6bc 37c7 313c c850 dcbc 9667 673c
000000c0: 5e03 35bc e604 4e3b 07d8 093d a68c aebc
000000d0: 3b76 27bc dc5e 62bd 094c aabd 93cb ebbc
000000e0: d0ca 6fbd 2fdf 803d 5b2c 45bb 45d6 31bd
000000f0: 7ad0 403d df89 0c3d 4f1b 4a3c c5c6 82bb
00000100: f69d 3ebd 7cb8 36bc 8abc 26bb aa3a 043d
00000110: 58aa 7ebd 1233 54bd 0b41 eb3c e3dd 573d
00000120: d114 cd3c 926b 49bd 9f85 7f3c 0ba3 6bbd
00000130: 61c7 72bd 58fa f7bc c16d dfbc ce8e b43d
00000140: e548 5f3c f7f6 b4bd ff11 8bbc 0180 593b
00000150: 4b72 47bd 30ea 93bc b39d c9bb 81de 963d
00000160: c903 c2bc f4ca 9abd 8774 fdbc 0585 ac3c
00000170: efce 5ebb 2bd2 e7bd f0f3 58bb 240b 673d
00000180: af15 afbc 17a8 c43d 19e5 173d 934a 60bc
00000190: e73d 62bc a67b 8ebd b4c2 61bd 9a48 a1bd
000001a0: 9fc3 95bd 3efc 0d3a 4131 5c3d 1ccd 093b
000001b0: b4fd 9cbd 8dfe 4e3d e11e 303d 2964 503d
000001c0: a614 30bd 1662 8dbd b22d 3dbd 0348 3cbd
000001d0: 4528 23bd 7070 85bd 145f 93bc 4c18 8f3c
000001e0: 408c 81bd c78f c23d 0422 53bc 3001 2d3d
000001f0: 8ba3 babc 39cb 5f3b f911 683c 808a a3bc
00000200: 216f c0bb 6144 ae3d 19a1 16bc 8be3 af3c
00000210: 1245 a53d 49e0 c9bc f3fc 34bd 2a5b 66bd
00000220: 85e4 96bd f9be 44bd e920 fcbc e072 2f3d
00000230: fa5a 1fbc 7bbf f03c d856 2bbd 3f5d 373c
00000240: 7419 26bd 9e13 c2bd bdbb 5cbd 30f4 5e3d
00000250: 1e79 9c3c 0cc2 be3b 64c8 7a3d 282c c93b
00000260: 4642 013c 4f68 6c3d dd48 1dbd edfa 573d
00000270: 0c30 ce3c 7c40 11bd e474 7ebb c016 3f3d
00000280: d833 c0bb d8e2 00be 1f95 31bd 2c3f 8c3c
00000290: 1d18 393e b6f1 cfbb 854e 0d3c e614 40bd
000002a0: 5433 1fbd 3ac8 c7bc ffd6 603d dd91 8d3d
000002b0: a0cb 7dbd 7b8d 843c 567f 173d cf2d ecbc
000002c0: 593f d53d 9edb ffbc 8893 393d 3ee5 d63b
000002d0: 8a1e 5a3d 4980 353c f952 033c 40b8 36bc
000002e0: 794c 7d3c 3e8e 16bd 62a1 b03d d2cf 77bd
000002f0: 12ae b7bd 59c3 bf3b 1209 29bb 6bbc 5cbd
00000300: a072 bdbd 2cbf 9aba 9bbb c0bd eab6 94bd
00000310: d016 583c 58e1 efbc 8fe0 8fbb d403 edbb
00000320: 8722 11bd 2cc1 65bd fb71 ce3c 2ab1 4dbd
00000330: 4422 aa3d 94ba 3b3d 2bd1 39bc 720c 1b3d
00000340: 3710 0bb8 1b15 f8bd e163 ba3c 4794 483b
00000350: 48e7 e93c fafc f23a 3687 d23c 9ef7 1cbc
00000360: d482 cebc 08be 2c3d bd0d bebc dc78 c0bc
00000370: aa4d 063e 6a60 cc3c a5e7 a63c c3f8 ebb9
00000380: 2741 38bc d951 75bd a254 473d 0686 cebc
00000390: 8c81 26bd 51a8 253d 1f52 31bc 1b1e f5bb
000003a0: 0a40 9d3c d605 53bd b27b 953c fa9c e43b
000003b0: 58e6 693d e0a8 913b 4f8c f2bc 2891 3d3c
000003c0: 10e1 6bbd a7bd ebbd d1c5 c83b b74e a9bc
000003d0: e86f 24bd dfdc 3a3d e898 f8bb 0aec 7abc
000003e0: daed 96bd 1894 4aba 97ba 80bd ab04 ea3d
000003f0: 3d57 9d3c cd07 743d 24ac 6fbd 346a b9ba
0.061385173 -0.014660177 0.063744344 0.059468713 -0.050063137 0.06448796 -0.019727437 0.050191805
0.033961512 -0.081452474 -0.01784389 -0.0671834 0.043921936 0.05327791 -0.02390372 0.07818051
-0.031969603 0.01695918 -0.026872002 -0.02515149 0.106690496 0.035875436 -0.038101375 0.041547667
-0.062104136 0.011185189 -0.02575386 0.08563051 -0.11123093 -0.027321596 -0.08784708 -0.07858456
-0.052834526 -0.002778623 0.009670143 -0.068444625 -0.08696689 0.021224942 0.05150452 0.038448412
0.05905636 -0.0055533512 -0.072066404 -0.09174509 -0.026209798 0.010850719 -0.026893988 0.014123818
-0.011048166 0.0031436025 0.033653285 -0.0213073 -0.010221059 -0.055266246 -0.08315284 -0.028783595
-0.058543026 0.06292569 -0.0030086252 -0.043417234 0.04707382 0.03431117 0.012335612 -0.0039909803
-0.046537362 -0.011152383 -0.0025441968 0.03228251 -0.06217417 -0.051806517 0.028717538 0.052701842
0.02503434 -0.049174853 0.015595823 -0.057528537 -0.059272174 -0.03027074 -0.027274014 0.088163
0.013628219 -0.08836167 -0.016976355 0.0033187869 -0.048692983 -0.018056005 -0.0061528324 0.07366658
-0.023683446 -0.075582415 -0.030939354 0.021059522 -0.0033997854 -0.11319383 -0.0033104382 0.05640711
-0.021372644 0.09602373 0.03708372 -0.013689655 -0.013808704 -0.06957178 -0.055117324 -0.07875176
-0.073127024 0.000541631 0.05375791 0.0021026796 -0.076655775 0.050535727 0.0429982 0.05087677
-0.042988442 -0.06903474 -0.046186157 -0.045967113 -0.039833326 -0.065155864 -0.017989673 0.01746764
-0.06325579 0.095000796 -0.012886528 0.04223746 -0.022783061 0.003414823 0.014164441 -0.019963503
-0.0058726226 0.08509136 -0.009193682 0.021470806 0.08069815 -0.02464308 -0.044186544 -0.056239285
-0.073678054 -0.04803369 -0.030777412 0.042834163 -0.00972628 0.02938818 -0.041830868 0.011191665
-0.040551618 -0.09476398 -0.05388998 0.054432094 0.019100722 0.005821472 0.061226264 0.006139297
0.007889336 0.057716664 -0.038399566 0.052729536 0.025169395 -0.035461888 -0.0038826996 0.046652555
-0.0058655553 -0.12586534 -0.043355104 0.017119966 0.18075605 -0.006345953 0.008624678 -0.04689493
-0.03886731 -0.024387468 0.054892536 0.06912587 -0.06196177 0.016180744 0.03698667 -0.028830437
0.10412473 -0.031232651 0.045306712 0.0065580895 0.05325178 0.011077949 0.008015388 -0.011152327
0.015460127 -0.036756746 0.08624531 -0.060500927 -0.08968748 0.0058521447 -0.002579276 -0.053890627
-0.092503786 -0.0011806241 -0.09410783 -0.072614506 0.013189033 -0.029282257 -0.004390783 -0.0072331224
-0.03543332 -0.056092426 0.025200834 -0.050217785 0.08307317 0.04583223 -0.011341373 0.037853666
-3.3155284e-05 -0.121134005 0.022752704 0.0030605958 0.028552666 0.0018538528 0.02569924 -0.009580521
-0.025208868 0.042173415 -0.02319991 -0.02349513 0.13115564 0.024948318 0.020374129 -0.00045008035
-0.011246002 -0.05989251 0.048664697 -0.025210392 -0.04065089 0.040443722 -0.010822802 -0.0074803955
0.019195575 -0.051519237 0.01824746 0.006976721 0.05710444 0.0044451803 -0.02960792 0.0115702525
-0.057587683 -0.11510783 0.006127097 -0.020667417 -0.040145785 0.045620795 -0.007586587 -0.015315065
-0.07369585 -0.0007727756 -0.06285589 0.114266716 0.019206638 0.059577752 -0.058513775 -0.0014146031

sequential_3/conv1d_10/Conv1D f4 [64, 1, 3, 64]
00000000: ff65 96bc 07f6 8abc 3bc9 00bc 0439 9c3d
00000010: b75e 9cbd c290 b23d e8aa 0b3d c9e1 09bc
00000020: dacc 1a3c 420a b3bc df33 113d 8558 103d
00000030: 355d 983d bf5a dd3d a0f8 9dbd 20b3 1ebe
00000040: f0eb f23d 65ab 343c b232 1dbd 0ffc 0d3d
00000050: 849e e63c 7e18 ac3d 1221 72bd 61d8 4d3c
00000060: 2e89 3c3d 92c7 d7bc 907b cb3d 3664 0dbd
00000070: cb70 43bc 995e 063c 88b7 93bd 3512 07bc
00000080: 119d 513d 6d26 f33b fed1 813d 530f febd
00000090: e1f4 0e3d c82b 643c 61df 58bd 3995 16bc
000000a0: 5f32 67bd 965f 3e3c ade6 d1bb bb0b d23d
000000b0: 9342 763d 6715 393c d314 89bd a9e1 58bd
000000c0: dd1a cfbc c540 3cbd d732 2cbd d89b 80bd
000000d0: 8f81 06bd 379d 3c3b a54d 223c 5b20 f2bc
000000e0: 39df 9dbc 569f ab3c 525b 353d d795 e3bc
000000f0: 8e44 b6bb 229e 1dbd 6a51 09bd f752 573b
00000100: aa39 133d cb4d f53c 2b99 aabc 0ab9 9a3d
00000110: df7e 3ebd e1be 8f3d 2dcf 093c bfc9 19bc
00000120: e0dd cb3d 38c6 aabc 941b c8ba 1586 54bc
00000130: ec50 28bb 4e3d 45bc 1d7d e33b d18f 763d
00000140: 3bf0 b9bc 63aa 9fbd 9712 e0bc bb9e 0d3d
00000150: 845b acbd 0a27 60bc ae89 07bd 09a5 233d
00000160: 7f13 67bd 0ffa 143c a842 953d 0e04 1dbd
00000170: c760 a53d 40d6 94bd d9ea 5e3d 2fec 3c3d
00000180: 9172 023d ff85 313c df72 0ebd 4479 4a3a
00000190: 2d76 6d3d 37f6 1dbd 4643 7e3b a785 d93b
000001a0: 929b 3d3d 5d6f 123a 21f7 80bd 33f5 8dbd
000001b0: b297 63bc daae a33d c7e9 f43c 04e3 1a3d
000001c0: 7edf 51bd fec8 373c 2549 563d 5033 24bd
000001d0: 7cdd 5cbd e696 593c b6df 533d f3b8 bb3c
000001e0: 90cd 963d 5589 7abd 0685 993d 7406 153d
000001f0: a292 a13c 3993 6cbd 0905 2dbd fd49 a53b
00000200: 886b 58bd cf15 1e3d 251b 15bb fe7a 8e3d
00000210: 56e0 fe3c 86a1 013c 2d7b 1fbd 1c7f 8a3d
00000220: 9974 3a3d e276 7d3b 4f2e 6bbd 71ff 313d
00000230: 2b3c babd fe4a 6abc 5267 e63b 6970 493d
00000240: bf70 5e3d 37ad 7fbd 1b03 803d ec8d 863c
00000250: 4f93 06be ee58 423d 1287 ed3c a624 073d
00000260: d6f6 2abd 2d2c 323d e3b7 9b3c 8295 863c
00000270: c2b6 c63d 053f f43c 1e9f 3f3d f115 0a3d
00000280: 92ab bc3b 38ee d53d 145e 9e3d dfc5 2bbd
00000290: 445d babd f81a ebbb 342a 1c3d 54a2 073c
000002a0: 1650 92bb f734 4f3d 80fd 11bd 8356 f03b
000002b0: 1c4b 2b3d 086e 1abd 787f b1bc bf9e babc
000002c0: 2ead d13a 3950 f33b 994c 0e3d 8f48 d7bb
000002d0: 2846 6e3d 0594 cd3c 9cd4 8ebd 239e 583d
000002e0: 387f d0bc 8d11 77bd ccb7 3d3d e7a2 32bb
000002f0: ab75 343d 3762 56bd 3d26 683d d7ad b1bc
00000300: 6134 7dbd 3cc5 cabc 03ca 673c 17b5 a8bc
00000310: bf32 513d 37c6 dbbb d785 7f3c 9894 abbd
00000320: d55f 0cbd 892e 3bbd 0333 5d3c 54be 273b
00000330: 6a1c 973b 7bbb dd3b 18ec 183c 2700 ea3d
00000340: 845e ab3d 741a 84bd 20f6 533d fa71 0fbd
00000350: 4651 023c 4ae4 5f3c 55f2 c13b bacd e8bc
00000360: d8ad b73d e101 62bc 4d86 00bd f462 afbc
00000370: 2716 a5bc 6a39 35bd e703 fd3c dfcc 98bb
00000380: c293 f43c 8bfa 81bd b9f8 0fbd a6ad f7bc
00000390: d957 d7bc 207c 0d3e 46fa 3abb 2fcd 053d
000003a0: e7e7 89ba 2137 4c3d 104d a43d 6f28 233d
000003b0: 2ede 57bd 9a5c 13bc 823e 2abd af5d af3c
000003c0: 5f09 a83c 7c47 f4bc d65c 883c 3fd6 873d
000003d0: 7be5 19bd 290f d73c 55cd 2e3d ed9f c43c
000003e0: f806 d1bc b807 fd3b 9385 f1bb 9f66 b0bc
000003f0: f6c4 40bc 8f10 5f3d e827 4e3c eb38 e93c
-0.018359182 -0.016963018 -0.007860477 0.07628062 -0.07635253 0.087190166 0.034098536 -0.008415648
0.0094482545 -0.021855477 0.03544986 0.03524067 0.07439653 0.10808324 -0.07713437 -0.15498018
0.11861408 0.011027192 -0.038378425 0.03466421 0.028151758 0.08403109 -0.05911357 0.012563796
0.046029262 -0.02634028 0.09935677 -0.034519397 -0.011928747 0.008201265 -0.0721274 -0.008244087
0.05117518 0.007420352 0.06338881 -0.124052666 0.034901503 0.013926454 -0.052947406 -0.009190851
-0.056444522 0.011619469 -0.0064056725 0.10256144 0.060122084 0.011296607 -0.06693425 -0.05294958
-0.025281364 -0.045960207 -0.042040672 -0.06279725 -0.0328384 0.002878023 0.009906207 -0.029556444
-0.01927148 0.02095 0.044276543 -0.02778141 -0.0055623716 -0.038480885 -0.033524908 0.0032855847
0.035943665 0.029944321 -0.02082499 0.07554825 -0.046507712 0.07018829 0.008411211 -0.009386479
0.09954429 -0.020846471 -0.0015267008 -0.012971421 -0.0025682999 -0.012038542 0.006942405 0.060195748
-0.022697559 -0.077961706 -0.027352614 0.034575205 -0.08415893 -0.013681183 -0.033090286 0.03995231
-0.056415077 0.009092822 0.07288104 -0.038333945 0.080750994 -0.072674274 0.054423187 0.04612368
0.03184754 0.01083517 -0.03477752 0.00077237585 0.05797403 -0.038564887 0.0038797422 0.006638247
0.04629094 0.00055860524 -0.06297136 -0.06931534 -0.013891147 0.07992335 0.02989663 0.037814155
-0.05123853 0.011217354 0.05231585 -0.040087998 -0.05392216 0.013280606 0.05172702 0.02291534
0.07363427 -0.061166126 0.07496075 0.036383107 0.01972324 -0.05775759 -0.04224113 0.0050442205
-0.052836925 0.038595017 -0.0022751775 0.06957053 0.031112831 0.007912045 -0.03893583 0.067625254
0.045521352 0.0038675596 -0.05741721 0.0434565 -0.090935074 -0.014300106 0.0070313597 0.04917947
0.05430674 -0.06242105 0.06250592 0.016425095 -0.13142131 0.04744809 0.02899507 0.032993935
-0.041739307 0.04349916 0.019008582 0.016428713 0.09702827 0.029815206 0.046782605 0.03371233
0.0057577575 0.10445827 0.07732788 -0.04193675 -0.0909982 -0.007174846 0.038126186 0.008278448
-0.0044651134 0.05058762 -0.035642147 0.0073345318 0.041819677 -0.03770259 -0.021667227 -0.022780774
0.0015997046 0.007425335 0.034741018 -0.006569929 0.058172375 0.025094995 -0.06974146 0.052885186
-0.025451288 -0.060319472 0.04631786 -0.0027257742 0.04405753 -0.05233976 0.056677092 -0.021689339
-0.06181753 -0.024752252 0.014147284 -0.020594163 0.051073786 -0.0067069787 0.015595875 -0.083779514
-0.03427108 -0.045698676 0.013500932 0.0025595622 0.0046115415 0.006766734 0.009333633 0.1142581
0.08367637 -0.06450358 0.051748395 -0.035020806 0.007953947 0.013665268 0.005918781 -0.02841841
0.08968705 -0.013794393 -0.03137808 -0.02140949 -0.020152165 -0.044244207 0.03088565 -0.0046630944
0.029855613 -0.063466154 -0.03514931 -0.03023417 -0.026287006 0.13816881 -0.0028530522 0.03266638
-0.0010521383 0.049857263 0.08022511 0.039833482 -0.05270212 -0.008994246 -0.04156352 0.021406977
0.020512281 -0.029819243 0.01664583 0.06632661 -0.037572365 0.026252346 0.04267629 0.02400204
-0.025516018 0.0077218674 -0.0073706596 -0.021533309 -0.011765709 0.05445915 0.012582757 0.028469523

sequential_3/conv1d_11/Conv1D f4 [64, 1, 3, 64]
00000000: 08b8 06bd 1133 493a e710 86bc 0c55 dc3d
00000010: 8030 403d 9e62 783d 60b6 67bb a165 c9bd
00000020: b34d d43c 830d 163d f9d2 d23b 766f 293b
00000030: ff21 2d3d f75e 13bd 02b7 55bd 050e aebc
00000040: 260d 133d e379 16bc 2ce0 4abc 1330 14bd
00000050: aef7 99bc 4d3f e7bc b3cb 193c 183e e13c
00000060: 498c 8ebd ac91 b3bd 96d7 e4bc 7be4 d3bc
00000070: 65fe f03c ff1c 663c 3e5a 0b3d 285a 9e3c
00000080: 0a0b 03bc d838 afbb 0e79 8a3d 5729 81bd
00000090: 6502 1fbc b73c ecbc 133a dfbd 7ee2 cbbb
000000a0: e657 aebd 6624 36bc 732e 9ebd 59f0 633b
000000b0: 79b3 0f3e 07d9 5abd c14b cabc cddd 88bd
000000c0: ef00 01bd 4e85 37bc aeb7 bdbd 1cfa a23d
000000d0: 941a 303d 5907 103d bb1a 043d bf51 0abd
000000e0: c5e8 60bd 91bc 06bb f5a1 cf3a 836e a23b
000000f0: b2ca f7bc d4c6 ff3c b7f2 2c39 6047 943c
00000100: 69df e8bc 2780 833d d8a9 04bd e84e 093d
00000110: f54c 8cbc 1f60 76bc 8d48 1d3c 5e7c efbc
00000120: 0f7f 50bc c64f 36bc 250c 6dbd bc28 63bc
00000130: ac73 dcbc 3308 cebd aaa6 9cbb 0211 033d
00000140: 3d66 383d b8ec 86bd 78e5 edbd 86e0 c33d
00000150: 14d1 45bc 5d36 7fbd 4a80 7e3d d163 17bb
00000160: 9e46 523d e6a4 6ebc 913a c63c 2b03 663c
00000170: 4dcd 053d 442e 5e3d 2f24 8cbd 0803 5fbc
00000180: 65c4 e93a 60b2 7bbd a4c4 98bd da32 793c
00000190: 3c73 bf3c eab0 85bd 4281 803d e836 19bd
000001a0: 409f c93c d02d 03bd e07c 383c 406b df3c
000001b0: 8ce3 69bd 8e05 82bd de4d 95bd 6d7a b63d
000001c0: fb28 d33d 1865 6f3d a429 60bd 1a8f cbbc
000001d0: 78b1 eebc f920 1fbd fb2b 6c3d 6d78 aabc
000001e0: 87d1 29bd f6d4 a8bc 4b3c 293d 508c 89bd
000001f0: 19df babd 84f0 e83c 53cf 87bb 0e6d 0d3d
00000200: ff67 ed3c 10d8 563c 43d1 753d ff89 f3bc
00000210: d3e6 d63d ef8e 573c 44eb 9e3d 7303 acbd
00000220: 1e0f af3c 92b1 27bd abde ecbd 45dc db3b
00000230: 956c d13c c368 323d 6c45 17bd 572c 47bd
00000240: 6c62 0cbd 854e 81bd 32a1 a0bd 6d2e 9f3b
00000250: 48fc 243d ca10 c7bd d646 febc 0e8f 0dbe
00000260: 047b 093c 7cea 083d 4395 d0bc 1f04 e33c
00000270: 7d6f 94bc 0fba da3d 0823 5abc 6bab 713c
00000280: 4629 9d3d fcf1 6f3c 2781 0d3d b164 c0bd
00000290: 7885 e0bc d582 8d3d c50b dfba 3034 af3c
000002a0: f64e 5ebd daae 1f3d eac0 e03c 3708 3cbd
000002b0: 3bdf a53c b338 a5bd 96a5 a4bd c045 60bc
000002c0: e24d 043d c470 b73d 879e d3bc 6cf6 bbbc
000002d0: c41c 90bd 68ca acbc 64e9 b33b ca59 323b
000002e0: e16c 38bc 5be0 6f3d 2e17 593d 20cb 54bd
000002f0: 0d0d 63bc 1648 043c dddf 9ebd e3fc 41bb
00000300: 4911 ac3d d361 06be 47ea a9bc 339d f03c
00000310: eba3 753c b88f f9bc dc55 45bd d0ef ddbc
00000320: 7b89 03ba d9d7 2fbd 9259 87bc ff31 25bc
00000330: d908 3dbc 8cec a73c 811d 713b 08af 833d
00000340: bfd0 fb3c 8708 2dbc 9818 9fbd ad8a 84bb
00000350: 386e 043c 0639 8abd 033b fd3c 67bc abbc
00000360: ffa9 9b3c b8da eabd 7d15 3d3d de38 53bd
00000370: e7ba 343b 573c 08bd cbcd 90bc 418a 4f3c
00000380: 8ef5 5cbb bf18 5ebd ec47 533d 6a6c 74bd
00000390: 16fb fcbd db18 c03c 8263 a4bc 8928 163d
000003a0: 7663 12bd 7a91 4b3d 3917 22bd e404 f7bc
000003b0: 47e3 02bd a694 dcbc 01e6 523d 8ead acbd
000003c0: d296 15be 584e 893d e4fc a63d afe0 59bc
000003d0: e42f 513d 4c2a 3bbc 4f58 04bd fa7f 923d
000003e0: f2f5 11be fb9d a2bc 3395 2a3c 01a7 8c3d
000003f0: 845b 223b 3375 3bbd 2653 c8bc c9fe 763c
-0.03289035 0.0007675151 -0.016365482 0.10758409 0.046921253 0.060640924 -0.0035356507 -0.09833837
0.025915956 0.03663398 0.0064338413 0.002585379 0.04226875 -0.035979237 -0.052176483 -0.02124692
0.03590121 -0.0091843335 -0.012382548 -0.03617866 -0.01879486 -0.028228426 0.009386945 0.027495429
-0.06960351 -0.08768019 -0.02793483 -0.025865784 0.02941818 0.014044999 0.03402161 0.0193301
-0.007998237 -0.0053473525 0.067613706 -0.06306713 -0.009705161 -0.028837545 -0.10899749 -0.0062220683
-0.08512859 -0.0111170765 -0.07723703 0.003478071 0.14033307 -0.05342963 -0.024694325 -0.0668293
-0.03149503 -0.011201216 -0.0926355 0.07957861 0.042994097 0.035163257 0.032252055 -0.033769365
-0.054909486 -0.0020559172 0.0015841114 0.0049570217 -0.03024802 0.031222738 0.00016493617 0.01810044
-0.028426843 0.064209275 -0.032388538 0.033522516 -0.01712654 -0.0150375655 0.009599817 -0.029234108
-0.012725606 -0.011127418 -0.05787291 -0.013864692 -0.026910625 -0.100601576 -0.00478061 0.03199864
0.045019377 -0.06588119 -0.11616033 0.09564309 -0.012073774 -0.062307704 0.062134065 -0.0023100267
0.051336877 -0.014565682 0.024197849 0.014038841 0.032666493 0.05424334 -0.06842839 -0.013611563
0.0017835019 -0.06144941 -0.07459381 0.015209878 0.023370378 -0.06527884 0.06274654 -0.03740588
0.02461207 -0.032026112 0.011260241 0.02727282 -0.05710177 -0.06348716 -0.072902426 0.089100696
0.10310551 0.05844602 -0.05472721 -0.02484851 -0.029137358 -0.038849805 0.05765913 -0.020809377
-0.041459586 -0.02060936 0.041317265 -0.067162156 -0.09124584 0.028435 -0.004144588 0.03452783
0.028980253 0.013113037 0.06001402 -0.029728888 0.10493245 0.013156637 0.07759717 -0.083990954
0.021369513 -0.04094083 -0.11565908 0.006709608 0.025564471 0.04355694 -0.03693144 -0.04862627
-0.03427355 -0.063138045 -0.078432456 0.0048578293 0.040279657 -0.09719999 -0.031039637 -0.13824102
0.008391146 0.033426747 -0.025461799 0.027711926 -0.018119568 0.10680019 -0.013314016 0.014750342
0.07673888 0.014645096 0.034546997 -0.09394205 -0.027407393 0.0690972 -0.0017017057 0.02138719
-0.05427452 0.03898511 0.027435739 -0.04590627 0.020248046 -0.08067455 -0.080393955 -0.013688505
0.032300837 0.08957055 -0.025832428 -0.022944652 -0.070367366 -0.021092609 0.005490469 0.0027214163
-0.0112564275 0.05856357 0.05300062 -0.051951528 -0.013858092 0.008073827 -0.07757542 -0.0029600195
0.084017344 -0.13123254 -0.020741595 0.029371833 0.014992694 -0.030464038 -0.048177585 -0.02709189
-0.00050177396 -0.042930458 -0.016522203 -0.010082721 -0.011537754 0.020498537 0.0036791267 0.06429869
0.030739186 -0.010561115 -0.07768363 -0.0040448518 0.008082919 -0.067491576 0.030911928 -0.02096386
0.019001959 -0.114674985 0.04616307 -0.051567905 0.0027577223 -0.03326067 -0.017676255 0.01266724
-0.0033715698 -0.05422282 0.051582262 -0.059673704 -0.12352578 0.023449352 -0.02006698 0.03665975
-0.035739385 0.049699284 -0.039572928 -0.0301537 -0.03195503 -0.02692635 0.05148888 -0.084315404
-0.14608315 0.06704396 0.08153704 -0.013298198 0.051071063 -0.011423659 -0.03231078 0.07153316
-0.14253977 -0.019850722 0.010411548 0.06867791 0.0024773786 -0.045766067 -0.02445371 0.015075394
