nn_models/model1.tflite (tflite, 943508 bytes, 13 tensors)

dense_9/bias f4 [32]
000000 db 55 ba bc ee 24 f5 bc 5a 60 cd 3c 5d ca 19 3c
       -0.022746017 -0.029924836 0.025070358 0.009386626
000010 8f d1 85 b9 8d e8 56 bc 59 33 5c 3d 25 5a b2 bc
       -0.0002552387 -0.013116968 0.053759906 -0.0217715
000020 28 31 c4 3c 60 54 5f bd 2e 02 06 3c f9 4a 9c 3c
       0.02394922 -0.054523826 0.008179231 0.019078718
000030 96 c0 c4 bb 43 e4 aa 3c 48 0d 92 3c f2 41 ed bc
       -0.0060044033 0.020860797 0.017828599 -0.02896211
000040 af fd 1b 3c d0 a5 c4 bb fb ec a9 3c 16 ea a9 bb
       0.009520932 -0.0060012117 0.020742884 -0.005185376
000050 7a 76 8f bc 42 44 12 3b 53 17 85 3b 00 00 00 00
       -0.017512549 0.0022318517 0.0040616184 0.0
000060 bb b8 05 3c 9e 30 0f bc 5f 19 d6 bc 50 04 17 3d
       0.008161719 -0.008739619 -0.026135145 0.036869347
000070 24 f4 8c bc e6 97 6a 3c fd 86 21 3d 00 00 00 00
       -0.01720626 0.014318442 0.039435375 0.0

dense_8/bias f4 [64]
000000 f6 9a ae bb e7 55 8c 3b f6 ff 31 bd 89 d5 d2 bb
       -0.0053285314 0.0042827013 -0.043456994 -0.006434147
000010 22 c0 f7 3c df 90 b3 bb e1 8e 94 bc 3f 7f 0c bc
       0.030242983 -0.0054799165 -0.018134536 -0.00857526
000020 34 8b bc bb 57 82 58 3b 9c 83 84 3b 04 66 cc 3b
       -0.005753899 0.0033036673 0.0040440094 0.006237747
000030 dd 47 51 bb af ff e3 bb 1c 46 f0 bb 87 b4 58 bc
       -0.0031933703 -0.00695797 -0.0073325764 -0.013226635
000040 f4 52 0f bb ec dc 00 bc 58 6c 25 bc 66 bb 07 3b
       -0.0021869512 -0.007865172 -0.010096632 0.0020711063
000050 56 c5 21 3d 85 91 a7 bb 49 79 0c ba 73 fd ff bc
       0.039494835 -0.005113783 -0.0005358649 -0.031248784
000060 e4 08 11 bc e2 b6 c4 bb b5 89 e5 bb 37 b9 56 bc
       -0.008852217 -0.0060032466 -0.0070049413 -0.013105682
000070 2f 4d bd bb b8 28 b9 b8 c1 bb 58 3c 59 86 2d bb
       -0.0057770233 -8.829072e-05 0.013228358 -0.0026477783
000080 0d bf c4 bb 2d 09 39 bb 5d eb c0 bc b8 4d 09 bc
       -0.0060042203 -0.002823423 -0.02354973 -0.008380346
000090 65 9a 10 bc 57 a6 0f bb 58 9c 53 3c 1d 4d 87 ba
       -0.008825873 -0.0021919215 0.012915693 -0.0010322664
0000a0 db cc ad bb 96 6d a7 bb 0d 49 ce bb f6 4e 9e bc
       -0.0053039617 -0.005109499 -0.0062953294 -0.01932476
0000b0 fd 12 c8 bb 44 ae cf bb 5c 1b 7f bb 3a d0 17 bd
       -0.006105779 -0.0063379128 -0.003892622 -0.037063815
0000c0 c8 f4 ad bb 30 b3 d6 bb 1f 63 dd bb c1 1e 84 bb
       -0.005308721 -0.0065521225 -0.006756201 -0.0040319865
0000d0 93 ae 43 bb c8 ef e7 bb d5 91 0f bc c2 99 24 bb
       -0.0029858693 -0.0070781447 -0.008762796 -0.002511606
0000e0 44 7e c4 bb 33 b4 92 bc 5f 77 0f 3d 21 e4 8e 3c
       -0.0059964973 -0.017908191 0.03502595 0.017442765
0000f0 19 0c 91 bc eb ca 33 3c d6 bd 15 3d c8 09 89 ba
       -0.017705964 0.010973672 0.036557995 -0.0010455186

dense_10/bias f4 [8]
000000 64 41 8a bc d3 80 d1 3c cc 94 f8 3b cf 55 0a 3d
       -0.016876884 0.025574123 0.0075860973 0.03377324
000010 1f be 6d bd 8b 92 84 3d 59 99 7b 3d 10 ae a4 3d
       -0.05804264 0.06473263 0.06142554 0.08041012

conv1d_8/bias f4 [64]
000000 df 70 73 bc f6 af 61 bd 7d c7 9e bd cd c7 8a 3b
       -0.014858454 -0.05509945 -0.07752893 0.004235244
000010 e4 11 ae 3c ac 82 23 bd dd 57 da bc 08 50 42 bd
       0.021248765 -0.03991954 -0.026653225 -0.047439605
000020 f5 d0 a0 bc 6a 52 83 bd d1 f1 75 bd 7a 14 62 bc
       -0.019630888 -0.064122036 -0.060045067 -0.013798827
000030 e2 f4 60 bc d6 b4 8d bc f8 e1 a9 bb 6e 10 e7 bb
       -0.01373026 -0.017298143 -0.0051844083 -0.007051519
000040 20 b8 a0 bc e8 b9 6e bd 09 cf fc bb 82 c9 2f bd
       -0.019619048 -0.058282763 -0.00771511 -0.042916782
000050 f7 ee 40 bd 58 04 83 bc c2 33 8d 3b d2 06 bf bc
       -0.047102895 -0.015993282 0.0043091485 -0.023318682
000060 2a 02 53 bd 18 62 57 bd 08 c3 20 bd 37 94 80 3d
       -0.051515736 -0.052583784 -0.039248496 0.0627827
000070 fa d7 b8 bc e1 eb 70 bd 7b 85 9e 3c 68 f8 ee bc
       -0.022563923 -0.0588187 0.019350758 -0.029171184
000080 59 f4 01 bd 0c 4a 6b bd da 0f 04 bc 36 ce a6 3a
       -0.03172717 -0.057443663 -0.00806042 0.001272625
000090 37 81 49 bc 4e 5b cc ba 1a dc 24 bd 19 93 e5 bc
       -0.012298874 -0.0015591176 -0.040248968 -0.028024243
0000a0 ae 7e 1a bd 21 4a d9 bc 1a 35 af bd d9 12 09 3d
       -0.037718467 -0.026524605 -0.0855505 0.03346524
0000b0 f1 e5 5e bd 0b 39 a9 bc 2d 27 df bc 08 27 e9 bc
       -0.054418508 -0.020657083 -0.02724036 -0.028460994
0000c0 aa f3 17 bd 9e 67 d6 bc aa 17 2e bd 6d 79 07 bc
       -0.03709761 -0.026172455 -0.042503037 -0.008268696
0000d0 1c ae 8f bc 9a 94 d5 bc ee 72 80 3c ac c4 e6 bc
       -0.017539077 -0.026071835 0.015679803 -0.028169952
0000e0 99 08 e9 bc 28 ab 1a bc 62 ec 2d bd 09 6f 34 bd
       -0.028446482 -0.009440221 -0.04246176 -0.044051204
0000f0 86 21 0d bc c3 17 22 bc 1c ad 6a bc 37 3e 1a 3d
       -0.00861395 -0.009893361 -0.014323499 0.03765699

conv1d_7/bias f4 [64]
000000 17 ab 30 bc 67 d1 b2 3c 7f 54 9d bc 9f 96 49 bd
       -0.0107829785 0.021828366 -0.01920533 -0.04921591
000010 52 30 a2 bc 5d 86 90 bd 72 aa 43 bd f6 19 8c bc
       -0.019798432 -0.07056878 -0.04776997 -0.017102223
000020 6c 4d 20 bd e6 d4 b4 3c 35 01 f0 bc c7 b2 ed bc
       -0.039136335 0.022074174 -0.02929745 -0.029015912
000030 f0 10 e9 bc 75 55 98 bd de 92 ec bc 5a 08 f7 3c
       -0.02845046 -0.07438175 -0.028878625 0.03015535
000040 39 22 2f bd 58 6d 2b bd 4b 00 42 3c 29 c7 28 bc
       -0.042757247 -0.041852325 0.01184089 -0.01030139
000050 37 39 a1 bc 38 ff ed bb ee 30 15 bd 82 67 28 bd
       -0.019680602 -0.0072630905 -0.036423616 -0.041114338
000060 03 84 09 bd 5d 55 fe 3b 4e 5f cc bc ab b4 4c bd
       -0.03357316 0.007761641 -0.024947789 -0.049976986
000070 15 94 a9 bc 60 f6 2b bd 9d 6f 6c bd fa 44 bb bb
       -0.020700494 -0.04198301 -0.05772363 -0.0057150098
000080 18 fb a4 bd 6f f9 30 3d 88 45 7b bd 5d cd 68 bd
       -0.08055705 0.04320663 -0.061345607 -0.056836475
000090 0d 7a 8a bd 95 bb 5b bd f0 56 e4 bb ac 72 e8 bc
       -0.067615606 -0.05364569 -0.0069683716 -0.028374992
0000a0 a5 ea 9d bc 0e 35 ee bc 35 a4 09 3c 87 33 d8 bc
       -0.019276926 -0.029078033 0.008400966 -0.026391758
0000b0 73 c4 91 bd f9 45 32 bd ff 74 2e bd e2 95 be bc
       -0.07117548 -0.043523762 -0.042592045 -0.02326483
0000c0 77 34 b5 ba 3a 38 40 bd 4b a3 35 bd fa 41 d9 bc
       -0.001382484 -0.04692862 -0.04434518 -0.026520718
0000d0 3e 58 bd bc af 95 4e bd e4 72 ba bc 79 51 de ba
       -0.023113366 -0.05043572 -0.022759862 -0.0016961537
0000e0 a3 2f 9a bc b5 0b 21 bd 44 82 72 bc bb ca 4a bd
       -0.018821543 -0.039317805 -0.014801566 -0.049509745
0000f0 3e 88 31 bd 99 5b 75 bc 2b 06 b7 3b 5b 7a c7 bc
       -0.04334282 -0.014975452 0.005585452 -0.024350336

conv1d_6/bias f4 [64]
000000 28 6c 48 bb 89 ff 1a bb a3 63 1c bc bd 93 84 bd
       -0.0030582044 -0.0023650846 -0.00954524 -0.06473491
000010 00 a7 3d 3d f8 04 f9 ba 00 00 00 00 3b 5c 0d bc
       0.04630184 -0.0018998673 0.0 -0.0086279465
000020 ee c8 16 bc 00 00 00 00 55 c6 da bb 2e 31 55 bb
       -0.009203179 0.0 -0.006676475 -0.0032530534
000030 3c a3 d3 bb 34 bd 72 bb 78 23 11 bc 17 60 8a bb
       -0.006458668 -0.0037039043 -0.008858554 -0.0042228806
000040 36 f3 f0 bc 44 ff e6 bb ca 3d 90 bb bd a0 8e bd
       -0.029412847 -0.007049473 -0.004401897 -0.06964252
000050 00 00 00 00 08 c6 9e ba a9 3f ef bb b9 82 cd bb
       0.0 -0.0012113461 -0.00730129 -0.006271687
000060 d6 dd 13 bc ce 9c 81 bd 6b 30 a8 bb 8f 91 51 bd
       -0.009025058 -0.06328736 -0.005132725 -0.051164206
000070 ee 61 c3 bc d1 60 8d 3a d4 1f a2 bb b2 0b 66 bd
       -0.023850407 0.00107863 -0.004947642 -0.056163497
000080 35 77 2b bb 86 ef ff bb 6f 40 b7 bb 39 ce 3a bc
       -0.0026163582 -0.007810536 -0.005592398 -0.011401706
000090 a0 df b1 bb bc 90 f4 bb 08 21 34 bb f0 23 22 bc
       -0.0054282695 -0.0074635427 -0.0027485508 -0.0098962635
0000a0 61 e5 de bc 46 ae 06 bc 96 42 fc bb a5 97 bb bb
       -0.027208986 -0.008220261 -0.0076983673 -0.0057248645
0000b0 7d 93 08 bc 24 34 99 bb bb 47 31 bc 17 c4 be b9
       -0.008335945 -0.004675405 -0.0108203245 -0.00036385722
0000c0 29 65 8c bb 9b 94 b4 bb 60 14 9a bb 51 74 fb bb
       -0.00428452 -0.005510879 -0.004702136 -0.007673778
0000d0 66 bd 04 bc c0 41 77 bd d2 29 6d bd fe 45 a1 ba
       -0.008101797 -0.06036544 -0.05790121 -0.0012304184
0000e0 a7 5f c3 bb 3b 40 c7 bb e9 11 de bb a6 9e c0 bb
       -0.0059623304 -0.006080655 -0.0067770374 -0.0058782874
0000f0 34 3d ba bb af db cb bb 75 a1 f3 bb 37 83 95 bb
       -0.0056835655 -0.0062212567 -0.0074350187 -0.004562761

sequential_2/dense_8/MatMul f4 [64, 2176]
000000 b9 80 44 bd 7d a3 2e bd 8f 94 e0 bc 3e a7 21 3d
       -0.047974322 -0.042636383 -0.027414588 0.039466135
000010 ef dc 7a 3c 82 34 37 ba ce 08 fe 3a 32 ed 03 bd
       0.015311464 -0.000698872 0.0019381286 -0.03220863
000020 10 84 5b bd a7 ab 50 3c 6d 82 f0 3c 99 28 f3 3b
       -0.05359274 0.012736238 0.029359067 0.007420611
000030 b8 a1 9a bc 2e 3b eb 3c d2 a8 95 bc f4 d8 84 3c
       -0.018875942 0.028714743 -0.018268976 0.016216733
000040 f5 c1 21 bd 94 83 7f 3c 2c 65 c5 3c 68 9f a0 bc
       -0.039491612 0.0155953355 0.024096094 -0.01960726
000050 65 17 0b 3d 04 7a 8a 3c 46 23 3e bd 4a cd 02 3d
       0.033957858 0.016903885 -0.046420358 0.03193406
000060 1e c4 bb b9 c3 e1 f6 bc c9 7f 49 3c ec 78 11 bd
       -0.00035813538 -0.030136948 0.012298533 -0.03551571
000070 65 1c ed bc a6 07 62 bd d8 27 41 bd 70 b6 b8 bc
       -0.028944204 -0.055183075 -0.04715714 -0.02254793
000080 01 32 8a bd 65 cc cc 3c a2 c1 fc 3a 8a 60 0a bb
       -0.06747819 0.024999807 0.0019283781 -0.002111467
000090 15 bf da 3c 71 e3 fa 3c ac 2c 34 bd 48 08 4d bb
       0.026702443 0.03062603 -0.043987915 -0.0031285454
0000a0 f4 11 b0 b8 8d bf c6 bc f7 a7 30 3d 2e de cc 3b
       -8.395678e-05 -0.02426126 0.043128934 0.006252072
0000b0 7b 9a de bc 81 87 29 bd 17 d6 83 bc 0c 68 87 bc
       -0.027173271 -0.041388992 -0.016093297 -0.016529106
0000c0 5f 7b 1f 3d 26 1f 9b bc b4 b3 d5 bc 6b 28 c2 3b
       0.038936015 -0.018935751 -0.026086666 0.0059252284
0000d0 3d 54 24 bd 1a ad c9 bc 3a 29 56 3c d1 e8 5e bb
       -0.0401194 -0.024618674 0.013071353 -0.003401328
0000e0 e8 87 33 bd 0a cd 06 3c ee bc c2 bc 7a 10 46 bd
       -0.043830782 0.008227596 -0.02377173 -0.048355557
0000f0 ea 84 f3 3c 08 07 77 bc 9f ab 5c 3c 8e d6 ba 3c
       0.029726464 -0.01507736 0.013468652 0.022807386
000100 fd 00 a7 3c f8 e8 23 bd e1 97 3b 3d ca 3e eb 3c
       0.020386213 -0.0400171 0.04579914 0.028716464
000110 2e 68 cc bc 63 f3 94 3b 3d 1a 2a 3d ba e8 79 bc
       -0.02495202 0.0045456155 0.04152893 -0.01525324
000120 e2 69 b1 3c 23 04 63 bc ce b7 08 bd ae 0e 8f bd
       0.021656934 -0.013855967 -0.033378415 -0.06985222
000130 9b 6f 01 3d be 24 7e bd d9 07 0e 3d b9 81 59 bd
       0.031600576 -0.06204676 0.034675453 -0.05310223
000140 25 5e 17 bd a8 99 a0 3c 58 26 10 3b 9d d8 33 bd
       -0.036955018 0.019604519 0.002199551 -0.04390775
000150 dd a8 66 bd 96 c6 fe 3c 0e 4a 3d bd 7a 7a 83 3c
       -0.056313384 0.031100553 -0.046213202 0.016049612
000160 ed 52 f9 3c cd ea 3b bd f0 77 82 bd 3f d2 33 3c
       0.03043505 -0.04587822 -0.063705325 0.01097542
000170 1c 37 b3 bc 65 fc 0b 3b 50 aa 79 bb b8 72 cb bc
       -0.021876864 0.0021360156 -0.00380959 -0.024834976
000180 fb 30 63 bc 1a c8 f8 bc 03 00 49 bd 4a 74 26 bd
       -0.013866658 -0.030368853 -0.049072277 -0.040638246
000190 54 1c 5a 3d 21 4f 9a bb c3 63 d3 3b d7 a7 73 bc
       0.053249672 -0.00470914 0.0064511015 -0.014871559
0001a0 37 92 02 bc 83 20 45 bd 62 24 07 3d 28 3e 26 3c
       -0.007969431 -0.04812671 0.03299368 0.010146655
0001b0 59 71 0b 3d 05 fd 30 3d 38 ba 22 3d 4b 60 0b 3d
       0.034043644 0.04321005 0.039728373 0.03402738
0001c0 16 04 2c 3c 72 c0 39 bc 37 ed e1 38 60 ab 2e bd
       0.010499021 -0.011337386 0.00010773021 -0.042643905
0001d0 2b c0 6a 3c 6a 8e 26 3d ef 9b 1d bd de cf 2c 3d
       0.014328043 0.04066316 -0.038478788 0.042190425
0001e0 47 6b ae bb c7 86 09 3d bb 56 02 3d 53 9e 71 bc
       -0.005322847 0.0335758 0.031820994 -0.01474722
0001f0 ac 75 80 bc 04 53 17 bc 80 64 1d bc e5 ea 8b 3c
       -0.01568111 -0.009236101 -0.009606481 0.01707978
000200 5b 6e 33 3d e4 72 b4 3c 96 fa 97 bb 28 f6 80 bb
       0.043806415 0.02202744 -0.0046380265 -0.003935594
000210 23 b7 1b bd da b3 bb bc 3e b9 25 bc a7 95 06 3d
       -0.03801645 -0.022912908 -0.010114966 0.032857563
000220 8e d9 0e 3d 2a b7 18 bc 70 f5 70 bd e0 2d 89 3c
       0.034875445 -0.009321013 -0.058827817 0.016745508
000230 4f 5e 39 3d 44 dd 29 bd 03 ec 58 3c f0 b6 e6 3c
       0.045255955 -0.04147078 0.013239863 0.028163403
000240 d6 60 42 bc 04 a0 22 3d a5 36 1c bd 4c 43 e4 bc
       -0.011863908 0.039703384 -0.03813805 -0.02786412
000250 c7 30 df 3b 25 26 09 3a 03 74 78 bd ee 24 c7 3c
       0.0068112346 0.0005231819 -0.060657512 0.024309602
000260 35 4e d3 bc 2a e7 e2 bc 06 09 27 bd 91 73 a3 bb
       -0.025794128 -0.027698118 -0.04078009 -0.004988142
000270 00 a1 4d 3a 7c b8 08 3d 3a cd 10 bd 9f 00 8f bd
       0.000784412 0.033379063 -0.03535197 -0.0698254
000280 67 37 ab bc e4 53 0f bc 6e 6e 08 3d 13 1a be bc
       -0.020900441 -0.008748028 0.03330844 -0.023205793
000290 e4 81 62 3c f2 e5 5d bb 40 b8 45 bd 2e 98 fe 3c
       0.013824914 -0.0033858982 -0.048271418 0.031078424
0002a0 c7 d9 aa bc 2d f2 e6 bb 96 b2 80 bc 07 7b 5f bd
       -0.020855797 -0.0070479126 -0.015710156 -0.054560687
0002b0 ae 25 16 bd 7b db 17 bd d2 99 89 bb 4a 70 c9 bc
       -0.036657028 -0.037074547 -0.004199245 -0.024589676
0002c0 9b ec ab bc 21 2e 3e 3d 2b 3f 6a bd 35 97 42 bd
       -0.020986846 0.04643071 -0.057189148 -0.047507484
0002d0 60 9b cf bc 56 b9 58 bb b5 24 8d 3c b7 82 71 bd
       -0.025342643 -0.0033069453 0.017229417 -0.05896255
0002e0 be 4e 16 bd 26 06 11 bd 51 b0 30 3d 84 9c 3c 3d
       -0.03669619 -0.035406254 0.0431369 0.046047702
0002f0 a2 d6 ba 3c 4d 0d cc bc 9b 58 34 3c c7 cd d3 3c
       0.022807423 -0.024908686 0.011007453 0.025854958
000300 d4 82 0e 3d 06 52 df 3b 93 1d cc 3c a8 6f a6 ba
       0.034792736 0.006815198 0.024916446 -0.0012698071
000310 12 3e 8f 3c c9 a5 4a 3c 0d 2d b5 3c 68 8b a3 ba
       0.017485652 0.012368628 0.022116208 -0.0012477459
000320 fe 3f 6b bc 9f 69 63 bd f2 8a 79 bd fb 62 87 bc
       -0.014358519 -0.05552065 -0.060923524 -0.01652669
000330 b2 a3 af 3c 66 90 9a 3c 5b 5a 88 3c b1 cb a1 bc
       0.02144036 0.018867683 0.016644647 -0.019750448
000340 5a c1 9d 3c 24 f1 68 bc 8b 44 e3 3c 35 cf fb 3c
       0.019257236 -0.014217649 0.027742645 0.030738452
000350 4c b7 e4 3c e4 88 10 bc 38 ad dd 3c eb 1a 52 bd
       0.027919434 -0.0088217 0.027060136 -0.051295202
000360 66 18 37 3d 40 3e eb 3c 12 8c ac 3b db 3f 3e bd
       0.044701003 0.028716207 0.005265721 -0.046447616
000370 7c a5 4a bd f1 13 69 bc fa f0 07 bd aa ac 87 bc
       -0.049474224 -0.014225946 -0.033188798 -0.016561825
000380 6f 7c 4c 3d 51 07 b6 3a 61 b3 6f bc a6 d2 00 bc
       0.049923357 0.0013887679 -0.01463017 -0.0078627225
000390 a2 74 be bc 97 71 77 3b 82 d7 0a 3d 45 f4 f7 3c
       -0.023248974 0.0037756914 0.03389693 0.030267844
0003a0 2e d1 2c bc e5 29 0e 3d ae 05 22 bd 14 c2 0d bc
       -0.010547919 0.034707922 -0.039556198 -0.008652229
0003b0 65 30 6f bd e4 20 48 bd 98 85 07 bd a8 78 0c bc
       -0.058395762 -0.048859492 -0.03308639 -0.008573689
0003c0 99 6b 0a bd 43 35 96 bc d1 b6 4d bd 8f 16 81 bc
       -0.03379402 -0.018335944 -0.050223175 -0.015757827
0003d0 98 c5 0d bd 8a 5c 38 bd 6b af 52 bc ff f8 72 3c
       -0.03461227 -0.045010127 -0.012859206 0.014829873
0003e0 89 cc 0d bd e1 ab 72 bc 12 b6 22 bd 73 93 17 3c
       -0.034618888 -0.014811487 -0.039724417 0.009251463
0003f0 f8 61 50 bc a4 7d 32 3c 62 c9 0f bd 72 6f 07 bd
       -0.01271867 0.010894213 -0.035104163 -0.033065267

sequential_2/dense_9/MatMul f4 [32, 64]
000000 95 1c 1b 3d eb d1 03 be 73 98 1c be 02 9c 5f be
       0.037869055 -0.12873046 -0.1529253 -0.21836856
000010 e2 5f 53 bd 33 d8 83 bc 8c 00 28 be 90 26 04 be
       -0.051605113 -0.016094303 -0.16406459 -0.12905335
000020 ff 54 d7 3d 37 af ce 3d a9 e0 3c 3e 2d 1b 7f 3e
       0.105142586 0.10092013 0.18445076 0.2491271
000030 41 4b 6e be 95 9d 72 3e 45 dc a7 3d 7f 39 af bd
       -0.23270895 0.23692925 0.0819631 -0.085558884
000040 8c 4e 00 3e 15 1a 20 be c4 44 20 3e f0 ea 1d 3e
       0.12529963 -0.1563495 0.15651232 0.15421653
000050 dc d4 2c be db c6 b0 3c 8d 46 a2 bd f9 b4 f7 bd
       -0.16878074 0.021579197 -0.07923613 -0.12095065
000060 86 fe 2b be af ef 0d 3e 4b f1 97 3b a0 61 f8 3d
       -0.16796312 0.13860963 0.0046369187 0.121279955
000070 1d a8 bc 3d 9b 2e e6 bd c1 c4 15 bc 7c 93 7d be
       0.092117526 -0.11239358 -0.009141148 -0.24763292
000080 7a 34 4d be e8 35 d6 3c 40 2e 2e 3b aa 60 6c 3e
       -0.2003955 0.026148751 0.002657786 0.2308375
000090 9b 6b fe 3d 8a 0e b3 3d 76 14 9a 3d 47 ab d6 3d
       0.12422868 0.087430075 0.07523434 0.10481887
0000a0 c0 0b 15 3e a8 59 1c be e0 f1 06 bd d1 20 40 3e
       0.14555264 -0.15268576 -0.032945514 0.18762518
0000b0 5e c8 dd 3d 69 66 20 3d 81 7c 50 be 50 42 f7 3d
       0.10829233 0.039160166 -0.20359994 0.12073195
0000c0 7c a9 5a be f4 25 5d be 68 65 53 be d5 c6 1b be
       -0.21353716 -0.21596509 -0.20644152 -0.15212567
0000d0 34 5b 4b be 1c ef f8 3d c8 f6 06 be 41 88 d5 bc
       -0.1985901 0.121549815 -0.13180077 -0.026065947
0000e0 8e 81 c1 3d 3e 90 05 be 3d 8d ff bc 30 b6 20 be
       0.09448539 -0.13043305 -0.031195277 -0.15694499
0000f0 67 bb af 3c 73 ba 1d be 4a 62 a6 bc 1e df 03 3d
       0.021451665 -0.15403156 -0.02031054 0.032195203
000100 73 af 03 be 42 1f 92 3d 13 09 06 3e d8 d2 e7 3d
       -0.12859897 0.07134868 0.13089399 0.11319512
000110 44 de 2d be f7 d3 2f be 41 fd 80 3e f0 7c cd bd
       -0.16979319 -0.17170702 0.25193217 -0.100335956
000120 59 8c 9d 3d da 9a 15 3d 6b d3 69 be be 36 36 3e
       0.07692785 0.03652463 -0.22834556 0.1779432
000130 7c 52 77 bd ee ff fd 3c 42 cf 6a 3e 2b 69 10 3e
       -0.060381398 0.031005826 0.22930625 0.14102618
000140 d2 f0 30 3e a8 da 06 be 70 83 99 3d 1b ef 43 3e
       0.17279366 -0.13169348 0.07495773 0.1913418
000150 96 d3 52 be ca 0f f8 3d b6 57 2a 3e 53 74 54 3e
       -0.20588526 0.121123865 0.16635022 0.20747499
000160 42 48 d0 3d 50 09 f7 3c ad 22 9b bd 60 ab 33 bd
       0.10170032 0.030155808 -0.07574973 -0.043864608
000170 e7 91 0f 3e 1c 14 00 be 96 47 4c 3c 4f a8 67 3e
       0.14020501 -0.12507671 0.012468239 0.22622798
000180 79 f1 4e 3d b4 5f 33 be 8a f1 c0 bd 09 9a cc 3d
       0.050523255 -0.17516977 -0.0942107 0.099903174
000190 c0 6e 33 3e ae 87 eb 3d ff 93 2d be db 0a 00 be
       0.17522717 0.11500488 -0.16950987 -0.12504141
0001a0 d8 0e d5 bd 3f 72 45 3e f4 bd 5d 3e f8 55 96 3c
       -0.10403222 0.19281863 0.21654493 0.01835154
0001b0 e9 2a f7 3d 7e 36 bd 3d af 92 04 bd 23 55 55 3e
       0.12068731 0.09238909 -0.03236645 0.20833258
0001c0 f0 cb dd bd 00 bd 48 3e 31 d2 17 3e af 68 35 3e
       -0.108299136 0.19603348 0.14826275 0.17715715
0001d0 af f3 36 be d6 a5 15 3e ea 17 6c 3e 53 5a 6f be
       -0.17866395 0.14614043 0.23055997 -0.233743
0001e0 23 e8 be bd 3f 66 37 3d 6a ab 35 bc a2 81 2e be
       -0.0932162 0.044775244 -0.011088232 -0.17041638
0001f0 57 0b 90 3c 2e d9 ce 3d 2c 61 90 be 4a 90 7e 3e
       0.017583532 0.101000175 -0.28199136 0.2485973
000200 20 fe 13 3e b7 7e 38 3e 69 56 5c 3d 77 2e 66 3e
       0.1445241 0.18017088 0.053793345 0.22478662
000210 db 9c cb 3d aa 6d 0c bc 52 69 2f 3e 13 b1 23 3e
       0.09942027 -0.008571068 0.1713002 0.15985517
000220 a8 af 0a 3e 61 5d 5c be 9b 65 c2 3c 1f 74 38 be
       0.1354357 -0.21519996 0.02373009 -0.18013047
000230 c8 98 25 be 3a 0c 25 be f7 02 1a 3e 6e 22 b6 3d
       -0.16171563 -0.16117945 0.15040193 0.08893286
000240 d9 03 6a 3e 59 ac 58 3d 3a 70 52 be 68 90 4f be
       0.2285303 0.05289874 -0.20550624 -0.2026993
000250 85 4f dc 3d a4 f2 f3 bd 22 49 16 be ba 15 3f be
       0.10757355 -0.119115144 -0.14676335 -0.18660632
000260 25 42 81 3e ac 13 25 bd a0 5e 42 3e 0f dc 7d bd
       0.25245777 -0.040301964 0.18981409 -0.061977442
000270 d7 af 35 be a3 90 fd bb bb d1 2a 3e c2 8e 62 3e
       -0.17742859 -0.0077381893 0.16681568 0.2212477
000280 81 07 db 3d 7b 6d 60 bd 84 1a f6 3b 36 85 4a 3e
       0.10694791 -0.05479191 0.007510485 0.19777378
000290 bf d4 ee bc b8 7d 94 3d 4d eb 2d bd 01 24 57 3e
       -0.02915418 0.072505414 -0.04246073 0.21009828
0002a0 cb 1f b4 bd 28 27 94 bd 17 24 35 bd 4f 81 1f be
       -0.087951265 -0.07234031 -0.04422387 -0.15576671
0002b0 c2 72 0f 3d 43 d7 45 3e 58 5e 1e be b2 1b 26 bd
       0.03502155 0.19320397 -0.15465677 -0.040553756
0002c0 70 27 0e 3e 91 06 54 3e f9 10 91 bd e0 04 63 3c
       0.13882232 0.2070563 -0.070833154 0.013856143
0002d0 76 d7 16 3e 40 a0 46 3e 27 6d 18 be a4 97 5a 3e
       0.1473063 0.19397068 -0.14885388 0.21346909
0002e0 98 ab 5f 3e 6b c0 74 3d fc 77 6b 3e f8 90 92 bb
       0.21842802 0.059753817 0.22994989 -0.004472848
0002f0 76 8d a6 bd ec 51 c1 3d 35 64 8a 3e df c5 dd 3b
       -0.0813245 0.094394535 0.27029577 0.006767973
000300 f9 21 a9 3d c7 82 a3 bd 67 6d 86 3c b3 c0 a7 3d
       0.08258433 -0.07983928 0.016409589 0.08191051
000310 ae 12 55 3e 30 47 94 3c f1 76 4e bd c3 b7 1d 3d
       0.20807907 0.018100351 -0.0504064 0.038505327
000320 34 08 2e 3e 46 71 3d 3e 00 8f 7d be f3 b7 82 3d
       0.16995317 0.18500242 -0.24761581 0.06382742
000330 6d 1f 0a 3e 59 42 c5 bd 7a a2 1d 3e 5f 13 97 3d
       0.1348855 -0.096317954 0.15394011 0.073767416
000340 e4 ec 36 be c3 9c 06 3e 83 28 24 be ce e5 3d be
       -0.17863804 0.13145737 -0.16031079 -0.18544695
000350 cf b0 06 3e 88 74 5f 3e f9 83 59 3e 7c bb 86 3d
       0.13153385 0.21821797 0.2124175 0.065787286
000360 73 14 c0 3d 9c b7 50 3e d1 0e 7b 3d ec 4a 70 be
       0.093789004 0.20382541 0.061293427 -0.2346608
000370 10 0a 4f be c8 39 3d bd d0 be 44 3e 26 52 3f 3e
       -0.20218682 -0.046197683 0.19213414 0.18683681
000380 30 b6 37 be 8f c4 5d bc f6 6c b8 3d e2 c7 0c be
       -0.17940593 -0.013535633 0.09005158 -0.13748124
000390 65 73 5d be 8a 53 18 3d b0 2d 0c 3e b1 39 ee bd
       -0.21626051 0.037189044 0.13689303 -0.116320975
0003a0 a4 69 80 bc 62 c8 4f bc 1f a7 f6 bd dd 4a 94 be
       -0.015675373 -0.012682052 -0.120435946 -0.28963366
0003b0 c7 5b e2 bd a9 a1 cb 3b ee 7f 81 bd 7c b4 8e bd
       -0.110526614 0.0062143398 -0.06323229 -0.069680184
0003c0 8c 88 33 3e 00 cc 92 bb b0 42 d9 3d d2 62 66 3d
       0.17532557 -0.004479885 0.10608423 0.056246586
0003d0 e0 c9 c9 3d b0 f1 64 be b4 11 57 bc 89 af 01 be
       0.09852958 -0.22357821 -0.013126779 -0.12664618
0003e0 c8 21 cb bd 51 17 45 3d 6d b4 56 3e c5 c2 fb 3a
       -0.09918553 0.04811794 0.20967264 0.0019207826
0003f0 9b 37 45 3e 1e 07 c9 bc db 17 4c bd 14 ad bc bd
       0.19259493 -0.024539527 -0.049827438 -0.092126995

sequential_2/dense_10/MatMul f4 [8, 32]
000000 74 e0 b4 3d a6 d6 40 be 7b b5 28 be f6 73 d7 3e
       0.088318735 -0.18831882 -0.1647548 0.4208066
000010 e5 9d 70 be a0 b3 d9 be bc 65 1d 3e 4e 6c a9 bd
       -0.23497732 -0.42519855 0.1537084 -0.082726106
000020 0d 3d 4d bd 1b 36 d7 bd fd 5b 91 be 2c 9e ee 3e
       -0.05010705 -0.10508367 -0.28390494 0.4660505
000030 14 36 bb be b8 c1 92 be 23 46 33 bd e1 de fc bd
       -0.36564696 -0.2866342 -0.04376806 -0.12347198
000040 24 dd 70 3d 20 fb 01 3d 0d 57 1d be d2 2a f5 bd
       0.058804646 0.031733632 -0.15365238 -0.11971058
000050 d0 bb b6 3c ad 4c 9d 3e d0 0f 3f be 40 83 dc bc
       0.022306353 0.3072256 -0.18658376 -0.026918054
000060 24 07 e3 be 92 ec a5 3d fc 9a b6 bd ca c9 7a bd
       -0.44341385 0.08101763 -0.0891628 -0.061227597
000070 28 73 6d be 6f b0 81 3e 88 e1 28 be a8 01 98 3e
       -0.2318846 0.2532992 -0.16492283 0.29688764
000080 24 c1 05 be 71 86 ea bd 75 6f bb bb 42 c2 2f be
       -0.13061959 -0.11451424 -0.005720074 -0.17163947
000090 6c c2 bf be f6 9f 98 bd 4e 3e 9d 3e 20 7e 99 3e
       -0.3745302 -0.07452385 0.30711597 0.29979038
0000a0 14 68 d5 3e 2b 2d b2 3d 32 fa 8b 3d 94 6f 85 be
       0.41680968 0.08700021 0.0683483 -0.2606169
0000b0 42 33 98 be f9 b0 5b 3d 67 db d4 be 5c 84 09 be
       -0.29726607 0.05363557 -0.4157364 -0.13429397
0000c0 2e d0 85 bd cd 12 14 be 04 72 71 bd dc 46 8b 3e
       -0.06533848 -0.14460297 -0.058946624 0.272025
0000d0 d6 a8 6a 3e b2 15 4b bd a6 a5 0d 3e 48 38 12 bd
       0.22915968 -0.049581237 0.13832721 -0.035698205
0000e0 da 44 43 3e b7 21 26 3d 76 45 f6 bd f0 19 8d bd
       0.19069234 0.040559497 -0.12024967 -0.06889713
0000f0 f1 b4 b5 bd ca 7e c3 be 81 07 b2 be 63 29 b4 be
       -0.088724025 -0.3818267 -0.3477135 -0.35187826
000100 4c 36 bc 3e 8a 47 f0 3d 3f a7 b1 3e 5b 1b c5 3d
       0.36760175 0.11732395 0.3469791 0.09624358
000110 53 13 23 3d a8 f7 bd be e9 58 9b 3e 9f c3 64 be
       0.03981335 -0.3710301 0.3034127 -0.22340249
000120 6a f4 90 3e 62 3f ce be e4 23 fd bc cf b4 9a bd
       0.28311473 -0.40282732 -0.030900903 -0.07554018
000130 0e 65 a9 3e 99 8a 5c 3d 46 3c 7e be a5 7d 97 bd
       0.3308491 0.053843115 -0.2482768 -0.07397012
000140 83 82 38 3e 49 6c 6d 3e a3 f7 a8 3e 57 2e fb 3d
       0.18018536 0.23185839 0.33001432 0.12264698
000150 d4 14 e9 bd 46 e6 8a 3e 5d aa 0c 3e 84 71 29 3e
       -0.11380926 0.2712881 0.13736863 0.16547209
000160 b2 ea 79 3d 6a 4f 9b be 40 ba 98 3c 5b b9 2a 3e
       0.06101484 -0.30334026 0.018643498 0.1667227
000170 eb 9f e1 3d 78 0f 8c be b5 ce 03 be c0 05 58 be
       0.1101683 -0.27355552 -0.12871821 -0.21095943
000180 05 2b 1b bb a6 9f c0 3e d1 5f 8d bc 34 9a 6d be
       -0.0023676765 0.37621802 -0.017257603 -0.23203355
000190 5b 7c 14 be 43 f1 8c 3d 69 a0 b2 3d ec 71 58 3e
       -0.14500563 0.068819545 0.08722002 0.21137208
0001a0 ec 45 cf be e8 02 66 be 08 85 a2 3e e0 75 b6 3e
       -0.40483034 -0.22462046 0.3174212 0.35636806
0001b0 45 7a bb be 37 f2 fa 3b 65 79 5f 3e a7 d9 8c 3e
       -0.36616722 0.007658269 0.21823652 0.27509806
0001c0 38 3f a3 be 0a a7 c5 be 85 73 e7 3e 81 bd b6 3e
       -0.3188417 -0.38604003 0.45205322 0.35691455
0001d0 d2 4b 72 3e 5c 84 23 be 83 0d 79 be c6 83 89 be
       0.23661736 -0.1596846 -0.2432156 -0.26858348
0001e0 5b 2d c9 be 18 a0 08 be e5 05 be 3e f8 65 04 3c
       -0.39292416 -0.13342321 0.37113872 0.008080952
0001f0 61 ae 17 3e 77 de 9d 3e 43 aa a8 3e 8e d0 a6 be
       0.14812614 0.3083379 0.329424 -0.3258099
000200 66 f5 2d be bb 90 9e 3e 58 a6 8d be 3d 33 62 bc
       -0.16988143 0.30969796 -0.27665973 -0.0138061615
000210 95 29 5f 3e 4a fd 27 bc bc ab de bd 29 6c 8d 3e
       0.21793206 -0.01025326 -0.108725995 0.27621582
000220 fa 26 c3 bc 2b 0e 54 3e 16 2d c6 bd f3 1f 5d 3e
       -0.023822296 0.2070853 -0.09676568 0.21594219
000230 97 c9 a0 3e d1 e1 ec be fe 74 80 3c a5 35 d3 3c
       0.314038 -0.46266034 0.015680786 0.025782416
000240 22 0e b7 be 8c 65 6c 3e 57 f7 86 be ab 35 9d 3d
       -0.3575297 0.23085612 -0.2636058 0.07676252
000250 57 e6 c7 bd 5e 35 97 be 18 dc 9f be 76 92 8b be
       -0.09760731 -0.29532903 -0.31222606 -0.27260178
000260 e8 c2 88 be b4 b1 0e 3e 5f 78 eb 3c 0f e8 7b 3e
       -0.26711202 0.13934976 0.02874392 0.24600242
000270 68 19 90 3e 59 5d 64 be 71 41 b5 3e fa af 89 3e
       0.28144383 -0.22301234 0.3540149 0.26892072
000280 74 e0 94 be 09 b2 c5 be f8 18 16 3e ff 66 a1 be
       -0.29077494 -0.38612393 0.14657962 -0.31523892
000290 2a 14 93 be d4 cd 50 3e df 95 89 3e b7 85 77 be
       -0.2872632 0.20391017 0.26872155 -0.24172102
0002a0 24 a4 0a 3e 90 04 a1 bd 52 26 80 be b9 a2 6f bd
       0.13539177 -0.07862198 -0.25029236 -0.058504794
0002b0 da 8c 63 bd a8 bb 76 3e b7 36 87 be 18 6c 9e 3d
       -0.05555425 0.24095023 -0.26408932 0.07735461
0002c0 b6 e6 cd 3e bd a9 96 be 55 30 ed bd d9 9d fc 3d
       0.4021508 -0.29426375 -0.11581484 0.123347946
0002d0 70 cf b6 bd 14 b7 15 be 7e 4b 92 3e 58 04 b6 bd
       -0.08926284 -0.1462062 0.2857322 -0.08887547
0002e0 50 f5 e9 bb 47 7a 82 3e 61 1b ca bd b3 30 91 be
       -0.007139839 0.25483915 -0.09868503 -0.28357467
0002f0 e6 b2 a8 be 08 be 9f 3e cb 7a ce be 9e ae 8b be
       -0.3294899 0.3119967 -0.4032806 -0.2728166
000300 eb 7b 15 3e 52 29 81 3e 9a a1 ba 3d 98 3c 91 3d
       0.14598052 0.25226837 0.09112854 0.070916355
000310 d7 02 1b be d7 c6 c7 be a0 10 9b bd b2 87 07 3e
       -0.15137802 -0.3901889 -0.0757153 0.13235357
000320 51 ca 7a 3a cd cc d5 bc 21 42 cf be 49 f7 97 be
       0.00095668907 -0.026098633 -0.4048014 -0.2968085
000330 89 9c 0e be 00 c6 5c be e2 07 1d bd 66 eb 4d bd
       -0.13926901 -0.21559906 -0.038337596 -0.05027332
000340 ab 8e 48 3e 96 6a 12 be 06 a7 b3 3d 13 31 8d 3b
       0.19585674 -0.14298472 0.087720916 0.0043088286
000350 ca 5a bd be 1e 93 4b 3d f4 18 08 bd e8 e8 4e 3e
       -0.3698333 0.04970085 -0.033226922 0.20206034
000360 45 a7 c6 3e 8c c5 5c bd f0 e8 45 3e fe dd ec 3d
       0.38799492 -0.053899333 0.1932714 0.11565779
000370 c5 2b 9d 3e 33 fb b9 3e 63 0a df be 89 d2 36 be
       0.30697456 0.36324462 -0.43562612 -0.1785375
000380 6a dd 3f be 8f 26 89 3e 30 c8 7c bd 5e 9f 00 bd
       -0.18736807 0.2678723 -0.06171435 -0.031401984
000390 30 ac aa 3d 63 19 50 be 46 7e e5 3c f7 ab b7 bd
       0.083336234 -0.20322184 0.028014313 -0.089683466
0003a0 4d 6f 2a 3d 30 6a 82 3b fb f8 07 be 29 cc 5a 3e
       0.04161005 0.0039799437 -0.13278572 0.21366943
0003b0 fb 02 ad be 50 be 90 be a9 25 50 be 79 c4 70 be
       -0.33791336 -0.28270197 -0.20326866 -0.23512448
0003c0 cc d8 d5 bd d4 4b 99 3d d2 f9 ee 3e d3 94 22 bd
       -0.10441741 0.07485166 0.46674973 -0.03969271
0003d0 78 f8 96 3e 93 77 d1 3e e2 f3 86 be e0 fc 49 3e
       0.29486442 0.4091154 -0.26357943 0.1972537
0003e0 b2 26 21 be 48 b2 6f be b6 8e 3f 3e 24 11 61 be
       -0.15737417 -0.23407853 0.18706784 -0.21979195
0003f0 37 89 80 bd 12 bd a3 3d 57 16 74 3c c6 c1 86 3e
       -0.06276172 0.07995047 0.014897904 0.26319712

sequential_2/dense_11/MatMul f4 [1, 8]
000000 e0 a1 ae 3e 1c d6 f1 be 46 52 2d 3f 34 7c 88 3e
       0.34107876 -0.47233665 0.67703664 0.2665726
000010 c8 16 22 3f af af 53 bf ac 26 59 be 41 d6 51 3f
       0.6331601 -0.82689947 -0.21206158 0.8196755

sequential_2/conv1d_6/Conv1D f4 [64, 1, 3, 352]
000000 87 7d 71 bc 9f 04 54 bd e0 30 41 3c 1d 51 b4 3c
       -0.014739401 -0.05176222 0.011791438 0.022011334
000010 18 67 6e bd be 30 b1 bb 8f ab 64 3c 3f 63 b6 3d
       -0.058203787 -0.005407422 0.013956918 0.089056484
000020 84 d3 91 bc b0 ab d9 bc 91 40 12 3d c0 3d eb 3c
       -0.017801054 -0.026571125 0.035706107 0.028715968
000030 8d 17 9a bd f0 57 0d bd 58 82 e8 3a 52 26 a6 bd
       -0.07524023 -0.03450769 0.0017739041 -0.08112778
000040 51 e7 1a bd c7 d5 fb bc 85 18 c0 bd 44 08 08 3a
       -0.037818257 -0.030741585 -0.09379677 0.000518922
000050 15 a0 3f bd a0 ec 86 3d 75 46 a1 3a bc 7e 68 bd
       -0.046783525 0.065881014 0.0012304323 -0.05676149
000060 3a e6 48 bd 74 88 b7 bb b3 d1 3c 3d 29 fc db 3c
       -0.049047686 -0.0056009833 0.046098422 0.026853638
000070 d8 c4 75 3d 3f 85 0d b9 31 5a b1 3c 84 18 2f bd
       0.060002178 -0.00013496446 0.021649452 -0.04274799
000080 36 77 d0 bc 6e b3 8b bc 7d 84 83 bd 50 f4 67 bd
       -0.02544747 -0.017053332 -0.064217545 -0.05662948
000090 65 6a 3f 3c d0 3a 11 3c b5 a9 fa 3c 92 36 e0 3d
       0.011683081 0.00886412 0.0305985 0.109479085
0000a0 ba f2 43 bb 02 05 a9 bd 77 98 32 3b 60 b3 e7 bb
       -0.0029899315 -0.08252908 0.002725152 -0.0070709437
0000b0 39 0c b2 3b dc 0b 5e 3d 0f 49 00 bd e6 76 5d bd
       0.005433586 0.05421053 -0.031319674 -0.05406847
0000c0 85 3e 3a 3d 1c 1a 84 bb 26 50 e8 bc 59 42 71 3b
       0.04546978 -0.004031433 -0.02835853 0.0036813228
0000d0 cf d3 dc bc 9f b5 9e 3c 1e 3b 7a 3d 4c f2 62 bd
       -0.026956467 0.019373713 0.061091535 -0.055406854
0000e0 3c 1d 4a 3d e9 24 97 3b fc 91 83 bd fb 63 d1 3c
       0.049344286 0.0046125543 -0.06424329 0.02556037
0000f0 30 3b 4f 39 02 d5 31 3d ef 73 70 3c 10 8f 12 bd
       0.00019763107 0.04341603 0.014676078 -0.035780966
000100 32 c8 84 bd 78 5f 07 bd c5 b0 f7 3b 22 31 6d bd
       -0.06483497 -0.03305003 0.0075589144 -0.057908185
000110 96 7f 16 bc fe 97 57 3c f8 42 59 bd 03 0c 53 bd
       -0.009185692 0.013158796 -0.053042382 -0.051525127
000120 d4 c7 73 bd 66 99 3e bd 15 b8 ba bd 4c 8c d2 bc
       -0.059516743 -0.04653301 -0.09117142 -0.025701664
000130 69 1b 9d bc 12 47 5f 3d db 2c 40 bd 7c b7 94 3c
       -0.01917811 0.054511137 -0.046917778 0.018153898
000140 25 1c bd bd 51 3a 71 bc de fa 01 bd e3 6a 97 bd
       -0.09233884 -0.014723376 -0.031733386 -0.07393434
000150 f9 15 c2 3d 09 4a 0a 3d d7 19 64 bd 5a 6b 8a bc
       0.09476847 0.03376201 -0.055688705 -0.016896892
000160 82 0a 1f bd 30 21 ad 3d 2d 13 95 3c 27 99 cf bc
       -0.03882838 0.08453596 0.01819762 -0.025341583
000170 ac 97 87 3c f2 60 19 3d 15 31 cf bc e8 0a 17 bd
       0.016551815 0.03744597 -0.025291959 -0.036875635
000180 df 8c 37 3d 4a 3d b5 bc 5c ae fd 3b b8 73 80 3d
       0.04481208 -0.022123951 0.0077417325 0.062720716
000190 ef 32 06 bc d5 c0 46 bd ab 9d 3d bd 9f ab db bc
       -0.008190854 -0.048523743 -0.046292942 -0.026815234
0001a0 8d c9 b6 bd 25 cb 1c bd 6d 96 e2 bc 1b 42 5d bc
       -0.089251615 -0.03827967 -0.02765962 -0.01350453
0001b0 8f 3a 89 bd 25 92 3e bb 21 7f cb 3c 58 7a 9f 3c
       -0.06700622 -0.0029078808 0.024840893 0.019467518
0001c0 65 5a 0d bd 47 b9 b1 bc 1c b5 9d bd 9c 98 13 bd
       -0.034510035 -0.021694792 -0.077005595 -0.03603421
0001d0 14 85 09 3d 28 c4 8e bd 06 d4 1d bb c4 0d 25 bc
       0.03357418 -0.069710076 -0.0024082675 -0.010074083
0001e0 dc e9 84 bd b1 8d 12 bd 18 2f 16 39 12 89 4d 3c
       -0.06489918 -0.03577966 0.00014322659 0.012544887
0001f0 68 be a3 bc 1c da fb 3d b5 ab 58 bd 40 39 96 bb
       -0.019988254 0.122974604 -0.052898128 -0.0045844615
000200 94 c1 ff 3b 23 ad 05 3e 79 c5 0f 3d 8b 1c d1 3d
       0.0078050587 0.13054328 0.035100434 0.10210522
000210 a6 3f 33 3c 4b 41 c1 3c bf f9 9d 3c 78 95 40 bc
       0.010940468 0.023590704 0.019284127 -0.011754386
000220 f0 5c 5b 3d a1 af 05 bd 43 2e 8d 3c e2 94 bb 3c
       0.05355543 -0.032638196 0.017233973 0.022898141
000230 c4 6a 8b bd 21 4a c8 3d 92 55 19 3d 4c 45 9a bb
       -0.06807473 0.09779764 0.03743512 -0.004707968
000240 10 5b 24 3c 38 e4 e5 3c 87 af 82 bd 1a 8a 56 bc
       0.010031477 0.028062925 -0.063811354 -0.013094449
000250 a3 8e 43 3d fe 8a 91 bc 2f 5e 0b bd 35 ee fe 3c
       0.04774345 -0.017766472 -0.034025367 0.031119445
000260 dc 1c 66 3b 25 22 2e bd 61 b6 b4 bd 3d 53 81 bc
       0.0035112416 -0.04251303 -0.088238485 -0.015786761
000270 0b 9d ef 3c 7a 39 40 3c dd 4d 91 bd 43 9e 38 bc
       0.029249689 0.0117324535 -0.07094929 -0.011268201
000280 66 77 bd 3c 53 b2 ca bc 6f d8 5a bd 9e 15 ac 3c
       0.023128223 -0.024743235 -0.053429063 0.021006402
000290 92 6e 26 3d 55 d4 f9 3d 1b 6b 9e bd d9 e9 14 bd
       0.04063279 0.12198702 -0.077352725 -0.036355827
0002a0 0b ab 8d bc f6 b5 8d 3d 1b a8 d1 bb 94 88 12 3d
       -0.017293474 0.06919472 -0.0063982136 0.035774782
0002b0 24 eb 8b 3d 0a c9 04 bc 8c d7 10 3d 37 e2 b6 3c
       0.06831959 -0.008104572 0.03536181 0.022324665
0002c0 da 06 bf bc 22 97 f3 bc 51 53 00 bd 7f f9 42 bd
       -0.023318697 -0.029735152 -0.031329457 -0.04760122
0002d0 6f d8 60 3d d8 7a 8a 3d 06 0a 07 bd 46 53 c6 3b
       0.054893907 0.06761712 -0.032968543 0.0060524074
0002e0 37 c1 65 3a 02 b6 87 bb 30 4a b1 bd 88 49 25 3d
       0.0008764448 -0.00414157 -0.08656728 0.040353328
0002f0 49 d0 37 3c e7 fd 75 bd 6f 60 38 bd b0 bc cc bb
       0.011219093 -0.060056593 -0.04501384 -0.0062480792
000300 68 60 4e 3d 8f 7b a0 bd fe d1 b8 3c 92 ef 3c bd
       0.05038491 -0.07836067 0.02256107 -0.04612691
000310 45 4b 9a bd 83 85 f7 bc 29 39 b6 3d d5 92 c9 3c
       -0.07533888 -0.03021503 0.08897621 0.024606148
000320 f6 fc 3a bc f6 ba 1e bd 90 4c 4a bc ee 59 f4 bd
       -0.01141285 -0.03875252 -0.0123473555 -0.11931215
000330 7f 17 c5 bc 3d 8c 7e 3d b6 12 d3 bd 6f 5a 71 bc
       -0.024059055 0.06214546 -0.10306303 -0.014731034
000340 c1 f8 34 3d b5 40 b0 bc 19 eb 92 3d f2 da 57 bd
       0.044182543 -0.02151523 0.071737476 -0.052699037
000350 75 90 9d 3b fe 11 03 be a3 9f b8 bc 44 45 c7 3b
       0.0048084804 -0.12799832 -0.022537058 0.006081255
000360 a1 d8 86 3c 68 f8 97 bd e5 21 30 3d 98 e5 0b bd
       0.016460719 -0.074204266 0.043001074 -0.034154505
000370 0f 8c 30 3d 2f 65 19 3d ed 25 ad bc 37 cd 89 bc
       0.04310232 0.03745001 -0.021136248 -0.016821487
000380 61 06 7d 3d 4e aa 1f bc de 04 9a 3c d4 ff 32 3c
       0.06177366 -0.009745194 0.018801149 0.010925252
000390 92 16 10 3d 85 ee 72 bd 27 f2 2d 3d 0a 14 3a 3b
       0.035177775 -0.0593095 0.042467263 0.0028393292
0003a0 15 4e 5b 3b f8 54 1b bd ec f0 a1 bd c0 a7 db 3c
       0.0033463289 -0.03792283 -0.0790728 0.026813388
0003b0 cb 8d 0f be 8d 04 c5 bd 6f 1e cb 3d 56 85 37 3d
       -0.14018933 -0.096200086 0.09917914 0.044804893
0003c0 7a 68 b2 3c 49 4a 07 3e c8 e3 a4 bc 37 21 17 bc
       0.021778334 0.13211931 -0.020128146 -0.009224228
0003d0 3b a3 4e 3d dc 55 53 3d c8 6d ad 3d e0 d5 6c bd
       0.050448637 0.051595554 0.08468205 -0.057821155
0003e0 b3 8d 7a 3d 25 09 ac ba cf 97 c2 3d 49 d6 0b bd
       0.06117029 -0.0013125284 0.095016114 -0.034139905
0003f0 13 26 43 bd 40 24 1e bd 16 90 89 bd 42 8e c9 bd
       -0.047643732 -0.03860879 -0.06716935 -0.09841587

sequential_2/conv1d_7/Conv1D f4 [64, 1, 3, 64]
000000 15 27 d5 bc 1b 15 33 bd b8 70 5b 3c 4f ca dd 3c
       -0.026019612 -0.0437213 0.013393573 0.027074007
000010 ce 97 4c bc ec 15 f1 bd e8 44 2a 3d 9f 70 93 ba
       -0.012487365 -0.117717594 0.04156962 -0.0011248774
000020 6c 3f cc bd a7 8d 4f 3b 26 b2 ea bc 6c a1 e0 bc
       -0.09973034 0.0031670125 -0.0286494 -0.027420722
000030 99 6b 40 3d 16 32 29 bc ac b2 23 bd e9 da 02 3d
       0.046977613 -0.010326883 -0.039965317 0.03194705
000040 96 5d d6 bc d4 0f 08 bd 6e e4 27 bd 4c c1 87 3d
       -0.026167672 -0.03321822 -0.040989332 0.06628665
000050 07 0c 13 bd fa 55 a0 bb d3 de 05 3d 80 df ae 3c
       -0.035900142 -0.0048930617 0.032683205 0.021346807
000060 16 02 95 bd 8e c5 93 3d 70 c9 97 bb f8 14 b1 bc
       -0.072757885 0.07215415 -0.0046321675 -0.021616444
000070 38 cf f1 3b b4 7e b9 bc 83 3d 99 bc 63 8a 2c 3d
       0.0073794387 -0.022643425 -0.018706089 0.042124163
000080 fc 5b a6 3d 64 13 b4 bc 91 f0 37 bd fa 0b c2 3c
       0.081230134 -0.021981902 -0.044907156 0.023687351
000090 56 77 59 3d 29 ed 04 bd 21 e7 d4 bc cc 05 2d bd
       0.053092323 -0.032452736 -0.025989117 -0.042241856
0000a0 ec c4 fa bb 96 5b 31 3c c0 d6 cf bd 87 70 30 bd
       -0.0076528694 0.010825058 -0.10148382 -0.043076064
0000b0 20 aa b1 3d c0 c8 0b 3d 80 d9 89 3c 64 f3 ec 3c
       0.08675027 0.034126997 0.016827345 0.028924651
0000c0 38 83 67 bc df 80 4e bd 47 c5 06 bd 6d cf 9d 3d
       -0.014130406 -0.05041587 -0.032902982 0.07705579
0000d0 ad ed 0b 3d d4 37 f2 3b 9f 0a 82 3d 7a d2 90 bd
       0.034162212 0.007391909 0.06349682 -0.07071395
0000e0 f7 f2 96 3d 38 37 e8 3c b0 ef 93 bc 44 5b a3 bd
       0.073705606 0.028346643 -0.018058628 -0.07976392
0000f0 03 bd a6 bc 1f f2 a9 3c bf 24 0d 3c f5 56 0a bc
       -0.0203538 0.020745335 0.008614718 -0.008443584
000100 96 87 39 bc cf 12 69 bc ca 2f 09 3d 8f 0d 84 bc
       -0.01132383 -0.014225676 0.03349284 -0.016119746
000110 34 4f 7e bd 25 5e e8 3c d6 fc 32 3d cb 2e 13 bb
       -0.062087253 0.028365204 0.043698154 -0.002245831
000120 21 3d 0e 3d 86 b1 1d 3d 59 92 d2 bc 4b 8b f2 bc
       0.034726266 0.038499378 -0.02570455 -0.029607436
000130 95 0b a4 3d ca da 45 3c 94 b1 b3 bc 00 71 66 bc
       0.080100216 0.012076089 -0.021935262 -0.014065027
000140 13 81 94 bc 02 50 86 3c c3 17 27 bd 28 e7 28 3e
       -0.018127954 0.016395573 -0.040794145 0.16494429
000150 89 0a 8b bd cc 69 49 3c 56 e2 95 3c 1c 19 10 3c
       -0.06789119 0.01229329 0.018296402 0.008795049
000160 19 67 68 3d 6c b8 8f 3d a9 53 08 bd a9 50 cb 3d
       0.056738947 0.070175976 -0.03328291 0.09927494
000170 f6 99 b0 3b 05 ef e8 bd 6c d5 c4 3c 61 1d a5 3d
       0.0053894473 -0.11373714 0.024027549 0.08062244
000180 ac 2f cb 3d ab 7a 63 bd a0 ff 72 3d 9c 4a c8 bd
       0.09921202 -0.055536907 0.059325814 -0.097798556
000190 5e 55 46 3d 28 d1 4e bc 7b 49 df bd 8f a4 d0 bc
       0.048421256 -0.012623109 -0.10902687 -0.025469093
0001a0 2a 09 32 bd e8 af ae 3d 16 52 65 bd 19 5c 35 ba
       -0.04346577 0.08529645 -0.055986486 -0.00069183257
0001b0 2a 52 12 bd 90 4f 1d bd 82 5e cc bb df fd 35 bd
       -0.03572289 -0.038405955 -0.006236852 -0.044431563
0001c0 43 88 73 3d 5d dd 80 3c 5e 85 d1 bb 80 03 2a bc
       0.05945612 0.015730554 -0.0063940724 -0.010376811
0001d0 3c 01 b1 3d cc 4a ea 3b ff f9 8a 3d 81 5c c7 3d
       0.086428136 0.0071500298 0.06785964 0.097344406
0001e0 1e ef 00 bc 0a 14 a5 bc 77 28 ba bd 09 26 46 bd
       -0.00786951 -0.020151157 -0.09089749 -0.048376117
0001f0 6c 0a 10 3d 57 88 c3 bc 31 ab b7 bb 90 c4 6c bd
       0.03516619 -0.023868723 -0.0056051244 -0.057804644
000200 5c 4d 0c 3d a8 9d 39 bc da 63 0f bd e1 d9 48 3d
       0.034253463 -0.011329092 -0.035007335 0.04903591
000210 8e 56 46 bb da 13 2b 3d e5 cc 7e bd f9 6b 25 3d
       -0.0030263993 0.04176698 -0.06220712 0.040386174
000220 21 47 5d 3d da d9 db 3c 70 a4 3b 3d 4a 4f bf bd
       0.054022912 0.026837278 0.045811117 -0.09341295
000230 c6 45 b7 3d e5 f4 b7 3d be 37 32 3c 3c d8 db 3c
       0.08948855 0.08982257 0.010877548 0.026836507
000240 d2 f4 36 bd b9 b6 4e bc a1 3a 7c bc 47 b3 5e 3d
       -0.044667073 -0.012616807 -0.015394838 0.05437019
000250 1d 45 16 bd 5d 2b fe 3c 51 a9 89 3c e8 89 b2 bc
       -0.036687005 0.031026537 0.01680437 -0.021794274
000260 8d 8b be bd 6c cf af 3d e3 03 c6 bc ad 91 ee 3c
       -0.09303961 0.085844845 -0.024171775 0.029122198
000270 50 bd a2 3d 2a 62 21 bd 7c 7d 2c 3d 4f 86 e6 bb
       0.07946265 -0.039400257 0.04211186 -0.007035054
000280 d7 ca 51 3c 5b fb 46 3c 13 cb 97 3d 60 d0 be 3c
       0.012804708 0.012144889 0.0741178 0.02329272
000290 8c d7 dc bc d2 df 1a bc 2d 99 70 bd a2 85 cc 3c
       -0.02695825 -0.009452777 -0.05873983 0.024966065
0002a0 f6 ed af bc bc a9 14 3d 39 5e 0c bd 61 69 a1 bc
       -0.021475773 0.036294684 -0.034269545 -0.019703569
0002b0 68 64 29 bc 7f 4a d7 3d d4 76 85 bd 38 ec f4 bc
       -0.01033888 0.10512256 -0.06516805 -0.029897794
0002c0 ed 07 ff bc d6 d1 11 bd 6c c3 6c 3d 71 81 d5 3c
       -0.031131709 -0.035600506 0.057803556 0.026062699
0002d0 14 3c 26 3b 58 7d 7a 3d f8 c5 94 bc a6 35 8d 3d
       0.00253654 0.061154693 -0.018160805 0.06894998
0002e0 8c 6a 58 bd 4b 94 ae 3c 90 56 5f bd c5 fb ef bb
       -0.052835986 0.021310946 -0.05452591 -0.0073237144
0002f0 5e d0 9f 3c 8f b8 70 bd ba fd 3f bc 31 38 14 3d
       0.019508537 -0.05876976 -0.011718208 0.0361864
000300 da b9 64 bc 3c 7c 0a bd 61 18 e9 bd e0 21 65 3d
       -0.013960326 -0.033809885 -0.11381603 0.05594051
000310 b5 64 78 3e 92 91 72 bd 3d 43 b6 3c a4 fb 05 3c
       0.24257167 -0.059220858 0.022248859 0.008177672
000320 d7 ad 43 bc 3d fb 7b bd 2e 01 c9 bc b9 3a 8c 3c
       -0.011943302 -0.061518896 -0.024536695 0.017117845
000330 1f 33 02 be 12 65 7c bc f6 ec 01 bc 80 42 a1 3c
       -0.12714814 -0.015404956 -0.007930031 0.01968503
000340 2b 99 0f bd bb 02 28 bc 0d 19 db 3c cf ee ce bc
       -0.03505818 -0.010254557 0.026745344 -0.025260357
000350 07 a1 90 3b 1b bb 85 3d b4 e4 d2 3c 74 df d0 bc
       0.004413727 0.06529828 0.02574382 -0.025497176
000360 1f 65 04 3c 15 42 7e 3d 94 2a 12 3d 13 c6 4b bd
       0.00808075 0.06207474 0.035685137 -0.049749445
000370 a7 24 a9 bd 8e 37 11 3e df 03 21 3c 3a 4c 4a bd
       -0.08258944 0.14181349 0.009827583 -0.0493891
000380 d2 80 8d bd c5 65 12 3d 92 1a da bb 08 d6 02 bd
       -0.06909336 0.035741586 -0.0066559995 -0.031942397
000390 0b 19 13 3c 36 82 82 bd d8 9a 4c 3d 45 d5 0e bd
       0.008978139 -0.06372492 0.049952358 -0.03487136
0003a0 17 40 e9 3c 5e 06 2c 3d dc be c4 bd 84 64 26 bd
       0.028472943 0.04199826 -0.09606716 -0.040623203
0003b0 b4 00 06 bb 8e 33 35 bd cd 19 fa bc e2 63 97 bd
       -0.0020447196 -0.04423862 -0.03052988 -0.07392098
0003c0 fd 17 df 3c 29 ce 53 3c ef 0e 07 3d 87 7b 89 bd
       0.027233118 0.01292757 0.032973226 -0.06713014
0003d0 1d de 11 bd 6a 41 48 3d a4 3c bb bd bb 83 8e bd
       -0.035612214 0.04889051 -0.09142426 -0.06958719
0003e0 a9 a5 76 bd fe 46 7e bc d9 dd a8 3d 69 8e 25 3d
       -0.06021658 -0.015519856 0.08245439 0.040419016
0003f0 55 ca a3 3d 69 63 8a bd 59 c4 df 3d 48 90 fb 3b
       0.07997576 -0.06757242 0.10926122 0.007677112
